<?xml version="1.0"?>
<net name="Model0" version="11">
	<layers>
		<layer id="0" name="input_ids" type="Parameter" version="opset1">
			<data shape="?,?" element_type="i64" />
			<output>
				<port id="0" precision="I64" names="input_ids">
					<dim>-1</dim>
					<dim>-1</dim>
				</port>
			</output>
		</layer>
		<layer id="1" name="attention_mask" type="Parameter" version="opset1">
			<data shape="?,?" element_type="i64" />
			<output>
				<port id="0" precision="I64" names="attention_mask">
					<dim>-1</dim>
					<dim>-1</dim>
				</port>
			</output>
		</layer>
		<layer id="2" name="position_ids" type="Parameter" version="opset1">
			<data shape="?,?" element_type="i64" />
			<output>
				<port id="0" precision="I64" names="position_ids">
					<dim>-1</dim>
					<dim>-1</dim>
				</port>
			</output>
		</layer>
		<layer id="3" name="beam_idx" type="Parameter" version="opset1">
			<data shape="?" element_type="i32" />
			<output>
				<port id="0" precision="I32" names="beam_idx">
					<dim>-1</dim>
				</port>
			</output>
		</layer>
		<layer id="4" name="Constant_86425" type="Const" version="opset1">
			<data element_type="f32" shape="" offset="0" size="4" />
			<output>
				<port id="0" precision="FP32" />
			</output>
		</layer>
		<layer id="5" name="ShapeOf_86411" type="ShapeOf" version="opset3">
			<data output_type="i64" />
			<input>
				<port id="0" precision="I64">
					<dim>-1</dim>
					<dim>-1</dim>
				</port>
			</input>
			<output>
				<port id="1" precision="I64">
					<dim>2</dim>
				</port>
			</output>
		</layer>
		<layer id="6" name="Constant_86413" type="Const" version="opset1">
			<data element_type="i64" shape="1" offset="4" size="8" />
			<output>
				<port id="0" precision="I64">
					<dim>1</dim>
				</port>
			</output>
		</layer>
		<layer id="7" name="Constant_86415" type="Const" version="opset1">
			<data element_type="i64" shape="" offset="4" size="8" />
			<output>
				<port id="0" precision="I64" />
			</output>
		</layer>
		<layer id="8" name="Gather_86416" type="Gather" version="opset8">
			<data batch_dims="0" />
			<input>
				<port id="0" precision="I64">
					<dim>2</dim>
				</port>
				<port id="1" precision="I64">
					<dim>1</dim>
				</port>
				<port id="2" precision="I64" />
			</input>
			<output>
				<port id="3" precision="I64">
					<dim>1</dim>
				</port>
			</output>
		</layer>
		<layer id="9" name="Constant_86418" type="Const" version="opset1">
			<data element_type="i64" shape="1" offset="12" size="8" />
			<output>
				<port id="0" precision="I64">
					<dim>1</dim>
				</port>
			</output>
		</layer>
		<layer id="10" name="Constant_86420" type="Const" version="opset1">
			<data element_type="i64" shape="1" offset="4" size="8" />
			<output>
				<port id="0" precision="I64">
					<dim>1</dim>
				</port>
			</output>
		</layer>
		<layer id="11" name="Constant_86422" type="Const" version="opset1">
			<data element_type="i64" shape="1" offset="20" size="8" />
			<output>
				<port id="0" precision="I64">
					<dim>1</dim>
				</port>
			</output>
		</layer>
		<layer id="12" name="Concat_86423" type="Concat" version="opset1">
			<data axis="0" />
			<input>
				<port id="0" precision="I64">
					<dim>1</dim>
				</port>
				<port id="1" precision="I64">
					<dim>1</dim>
				</port>
				<port id="2" precision="I64">
					<dim>1</dim>
				</port>
				<port id="3" precision="I64">
					<dim>1</dim>
				</port>
			</input>
			<output>
				<port id="4" precision="I64">
					<dim>4</dim>
				</port>
			</output>
		</layer>
		<layer id="13" name="Broadcast_86426" type="Broadcast" version="opset3">
			<data mode="numpy" />
			<input>
				<port id="0" precision="FP32" />
				<port id="1" precision="I64">
					<dim>4</dim>
				</port>
			</input>
			<output>
				<port id="2" precision="FP32">
					<dim>-1</dim>
					<dim>4</dim>
					<dim>0</dim>
					<dim>128</dim>
				</port>
			</output>
		</layer>
		<layer id="14" name="ReadValue_85999" type="ReadValue" version="opset6">
			<data variable_id="past_key_values.9.valuepresent.9.value" variable_type="f32" variable_shape="?,4,?,128" />
			<input>
				<port id="0" precision="FP32">
					<dim>-1</dim>
					<dim>4</dim>
					<dim>0</dim>
					<dim>128</dim>
				</port>
			</input>
			<output>
				<port id="1" precision="FP32" names="past_key_values.9.value">
					<dim>-1</dim>
					<dim>4</dim>
					<dim>-1</dim>
					<dim>128</dim>
				</port>
			</output>
		</layer>
		<layer id="15" name="Constant_85369" type="Const" version="opset1">
			<data element_type="i64" shape="" offset="4" size="8" />
			<output>
				<port id="0" precision="I64" />
			</output>
		</layer>
		<layer id="16" name="Gather_85370" type="Gather" version="opset8">
			<data batch_dims="0" />
			<input>
				<port id="0" precision="FP32">
					<dim>-1</dim>
					<dim>4</dim>
					<dim>-1</dim>
					<dim>128</dim>
				</port>
				<port id="1" precision="I32">
					<dim>-1</dim>
				</port>
				<port id="2" precision="I64" />
			</input>
			<output>
				<port id="3" precision="FP32">
					<dim>-1</dim>
					<dim>4</dim>
					<dim>-1</dim>
					<dim>128</dim>
				</port>
			</output>
		</layer>
		<layer id="17" name="Constant_74461" type="Const" version="opset1">
			<data element_type="f32" shape="1, 1, 3584" offset="28" size="14336" />
			<output>
				<port id="0" precision="FP32">
					<dim>1</dim>
					<dim>1</dim>
					<dim>3584</dim>
				</port>
			</output>
		</layer>
		<layer id="18" name="self.model.embed_tokens.weight" type="Const" version="opset1">
			<data element_type="u8" shape="152064, 3584" offset="14364" size="544997376" />
			<output>
				<port id="0" precision="U8">
					<dim>152064</dim>
					<dim>3584</dim>
				</port>
			</output>
		</layer>
		<layer id="19" name="Convert_106743" type="Convert" version="opset1">
			<data destination_type="f16" />
			<input>
				<port id="0" precision="U8">
					<dim>152064</dim>
					<dim>3584</dim>
				</port>
			</input>
			<output>
				<port id="1" precision="FP16">
					<dim>152064</dim>
					<dim>3584</dim>
				</port>
			</output>
		</layer>
		<layer id="20" name="self.model.embed_tokens.weight/zero_point" type="Const" version="opset1">
			<data element_type="u8" shape="152064, 1" offset="545011740" size="152064" />
			<output>
				<port id="0" precision="U8">
					<dim>152064</dim>
					<dim>1</dim>
				</port>
			</output>
		</layer>
		<layer id="21" name="Convert_106746" type="Convert" version="opset1">
			<data destination_type="f16" />
			<input>
				<port id="0" precision="U8">
					<dim>152064</dim>
					<dim>1</dim>
				</port>
			</input>
			<output>
				<port id="1" precision="FP16">
					<dim>152064</dim>
					<dim>1</dim>
				</port>
			</output>
		</layer>
		<layer id="22" name="self.model.embed_tokens.weight/zero_point/subtract" type="Subtract" version="opset1">
			<data auto_broadcast="numpy" />
			<input>
				<port id="0" precision="FP16">
					<dim>152064</dim>
					<dim>3584</dim>
				</port>
				<port id="1" precision="FP16">
					<dim>152064</dim>
					<dim>1</dim>
				</port>
			</input>
			<output>
				<port id="2" precision="FP16">
					<dim>152064</dim>
					<dim>3584</dim>
				</port>
			</output>
		</layer>
		<layer id="23" name="self.model.embed_tokens.weight/scale" type="Const" version="opset1">
			<data element_type="f16" shape="152064, 1" offset="545163804" size="304128" />
			<output>
				<port id="0" precision="FP16">
					<dim>152064</dim>
					<dim>1</dim>
				</port>
			</output>
		</layer>
		<layer id="24" name="self.model.embed_tokens.weight/fq_weights_0" type="Multiply" version="opset1">
			<data auto_broadcast="numpy" />
			<input>
				<port id="0" precision="FP16">
					<dim>152064</dim>
					<dim>3584</dim>
				</port>
				<port id="1" precision="FP16">
					<dim>152064</dim>
					<dim>1</dim>
				</port>
			</input>
			<output>
				<port id="2" precision="FP16">
					<dim>152064</dim>
					<dim>3584</dim>
				</port>
			</output>
		</layer>
		<layer id="25" name="__module.model.embed_tokens/ov_ext::embedding/Convert" type="Convert" version="opset1">
			<data destination_type="f32" />
			<rt_info>
				<attribute name="decompression" version="0" />
			</rt_info>
			<input>
				<port id="0" precision="FP16">
					<dim>152064</dim>
					<dim>3584</dim>
				</port>
			</input>
			<output>
				<port id="1" precision="FP32">
					<dim>152064</dim>
					<dim>3584</dim>
				</port>
			</output>
		</layer>
		<layer id="26" name="__module.model.embed_tokens/ov_ext::embedding/Convert_1" type="Convert" version="opset1">
			<data destination_type="i32" />
			<input>
				<port id="0" precision="I64">
					<dim>-1</dim>
					<dim>-1</dim>
				</port>
			</input>
			<output>
				<port id="1" precision="I32">
					<dim>-1</dim>
					<dim>-1</dim>
				</port>
			</output>
		</layer>
		<layer id="27" name="__module.model.embed_tokens/ov_ext::embedding/Constant" type="Const" version="opset1">
			<data element_type="i32" shape="" offset="0" size="4" />
			<output>
				<port id="0" precision="I32" />
			</output>
		</layer>
		<layer id="28" name="__module.model.embed_tokens/ov_ext::embedding/Gather" type="Gather" version="opset8">
			<data batch_dims="0" />
			<input>
				<port id="0" precision="FP32">
					<dim>152064</dim>
					<dim>3584</dim>
				</port>
				<port id="1" precision="I32">
					<dim>-1</dim>
					<dim>-1</dim>
				</port>
				<port id="2" precision="I32" />
			</input>
			<output>
				<port id="3" precision="FP32" names="280,362,hidden_states.1,inputs_embeds">
					<dim>-1</dim>
					<dim>-1</dim>
					<dim>3584</dim>
				</port>
			</output>
		</layer>
		<layer id="29" name="Constant_74389" type="Const" version="opset1">
			<data element_type="f32" shape="1, 1, 3584" offset="545467932" size="14336" />
			<output>
				<port id="0" precision="FP32">
					<dim>1</dim>
					<dim>1</dim>
					<dim>3584</dim>
				</port>
			</output>
		</layer>
		<layer id="30" name="Constant_74388" type="Const" version="opset1">
			<data element_type="f32" shape="1, 1, 1" offset="545482268" size="4" />
			<output>
				<port id="0" precision="FP32">
					<dim>1</dim>
					<dim>1</dim>
					<dim>1</dim>
				</port>
			</output>
		</layer>
		<layer id="31" name="Constant_74386" type="Const" version="opset1">
			<data element_type="f32" shape="1, 1, 1" offset="545482272" size="4" />
			<output>
				<port id="0" precision="FP32">
					<dim>1</dim>
					<dim>1</dim>
					<dim>1</dim>
				</port>
			</output>
		</layer>
		<layer id="32" name="__module.model.layers.0.input_layernorm/aten::pow/Power" type="Power" version="opset1">
			<data auto_broadcast="numpy" />
			<input>
				<port id="0" precision="FP32">
					<dim>-1</dim>
					<dim>-1</dim>
					<dim>3584</dim>
				</port>
				<port id="1" precision="FP32">
					<dim>1</dim>
					<dim>1</dim>
					<dim>1</dim>
				</port>
			</input>
			<output>
				<port id="2" precision="FP32" names="363">
					<dim>-1</dim>
					<dim>-1</dim>
					<dim>3584</dim>
				</port>
			</output>
		</layer>
		<layer id="33" name="Constant_403" type="Const" version="opset1">
			<data element_type="i64" shape="1" offset="545482276" size="8" />
			<output>
				<port id="0" precision="I64">
					<dim>1</dim>
				</port>
			</output>
		</layer>
		<layer id="34" name="__module.model.layers.0.input_layernorm/aten::mean/ReduceMean" type="ReduceMean" version="opset1">
			<data keep_dims="true" />
			<input>
				<port id="0" precision="FP32">
					<dim>-1</dim>
					<dim>-1</dim>
					<dim>3584</dim>
				</port>
				<port id="1" precision="I64">
					<dim>1</dim>
				</port>
			</input>
			<output>
				<port id="2" precision="FP32" names="365,variance.1">
					<dim>-1</dim>
					<dim>-1</dim>
					<dim>1</dim>
				</port>
			</output>
		</layer>
		<layer id="35" name="Constant_74387" type="Const" version="opset1">
			<data element_type="f32" shape="1, 1, 1" offset="545482284" size="4" />
			<output>
				<port id="0" precision="FP32">
					<dim>1</dim>
					<dim>1</dim>
					<dim>1</dim>
				</port>
			</output>
		</layer>
		<layer id="36" name="__module.model.layers.0.input_layernorm/aten::add/Add" type="Add" version="opset1">
			<data auto_broadcast="numpy" />
			<input>
				<port id="0" precision="FP32">
					<dim>-1</dim>
					<dim>-1</dim>
					<dim>1</dim>
				</port>
				<port id="1" precision="FP32">
					<dim>1</dim>
					<dim>1</dim>
					<dim>1</dim>
				</port>
			</input>
			<output>
				<port id="2" precision="FP32" names="366">
					<dim>-1</dim>
					<dim>-1</dim>
					<dim>1</dim>
				</port>
			</output>
		</layer>
		<layer id="37" name="__module.model.layers.0.input_layernorm/aten::rsqrt/Sqrt" type="Sqrt" version="opset1">
			<input>
				<port id="0" precision="FP32">
					<dim>-1</dim>
					<dim>-1</dim>
					<dim>1</dim>
				</port>
			</input>
			<output>
				<port id="1" precision="FP32">
					<dim>-1</dim>
					<dim>-1</dim>
					<dim>1</dim>
				</port>
			</output>
		</layer>
		<layer id="38" name="__module.model.layers.0.input_layernorm/aten::rsqrt/Divide" type="Divide" version="opset1">
			<data auto_broadcast="numpy" m_pythondiv="true" />
			<input>
				<port id="0" precision="FP32">
					<dim>1</dim>
					<dim>1</dim>
					<dim>1</dim>
				</port>
				<port id="1" precision="FP32">
					<dim>-1</dim>
					<dim>-1</dim>
					<dim>1</dim>
				</port>
			</input>
			<output>
				<port id="2" precision="FP32" names="367">
					<dim>-1</dim>
					<dim>-1</dim>
					<dim>1</dim>
				</port>
			</output>
		</layer>
		<layer id="39" name="__module.model.layers.0.input_layernorm/aten::mul/Multiply" type="Multiply" version="opset1">
			<data auto_broadcast="numpy" />
			<input>
				<port id="0" precision="FP32">
					<dim>-1</dim>
					<dim>-1</dim>
					<dim>3584</dim>
				</port>
				<port id="1" precision="FP32">
					<dim>-1</dim>
					<dim>-1</dim>
					<dim>1</dim>
				</port>
			</input>
			<output>
				<port id="2" precision="FP32" names="368,369,hidden_states.3,hidden_states.5">
					<dim>-1</dim>
					<dim>-1</dim>
					<dim>3584</dim>
				</port>
			</output>
		</layer>
		<layer id="40" name="__module.model.layers.0.input_layernorm/aten::mul/Multiply_1" type="Multiply" version="opset1">
			<data auto_broadcast="numpy" />
			<input>
				<port id="0" precision="FP32">
					<dim>1</dim>
					<dim>1</dim>
					<dim>3584</dim>
				</port>
				<port id="1" precision="FP32">
					<dim>-1</dim>
					<dim>-1</dim>
					<dim>3584</dim>
				</port>
			</input>
			<output>
				<port id="2" precision="FP32" names="370,hidden_states.7">
					<dim>-1</dim>
					<dim>-1</dim>
					<dim>3584</dim>
				</port>
			</output>
		</layer>
		<layer id="41" name="self.model.layers.0.self_attn.q_proj.weight" type="Const" version="opset1">
			<data element_type="u8" shape="3584, 3584" offset="545482288" size="12845056" />
			<output>
				<port id="0" precision="U8">
					<dim>3584</dim>
					<dim>3584</dim>
				</port>
			</output>
		</layer>
		<layer id="42" name="Convert_548353" type="Convert" version="opset1">
			<data destination_type="f16" />
			<input>
				<port id="0" precision="U8">
					<dim>3584</dim>
					<dim>3584</dim>
				</port>
			</input>
			<output>
				<port id="1" precision="FP16">
					<dim>3584</dim>
					<dim>3584</dim>
				</port>
			</output>
		</layer>
		<layer id="43" name="self.model.layers.0.self_attn.q_proj.weight/zero_point" type="Const" version="opset1">
			<data element_type="u8" shape="3584, 1" offset="558327344" size="3584" />
			<output>
				<port id="0" precision="U8">
					<dim>3584</dim>
					<dim>1</dim>
				</port>
			</output>
		</layer>
		<layer id="44" name="Convert_548356" type="Convert" version="opset1">
			<data destination_type="f16" />
			<input>
				<port id="0" precision="U8">
					<dim>3584</dim>
					<dim>1</dim>
				</port>
			</input>
			<output>
				<port id="1" precision="FP16">
					<dim>3584</dim>
					<dim>1</dim>
				</port>
			</output>
		</layer>
		<layer id="45" name="self.model.layers.0.self_attn.q_proj.weight/zero_point/subtract" type="Subtract" version="opset1">
			<data auto_broadcast="numpy" />
			<input>
				<port id="0" precision="FP16">
					<dim>3584</dim>
					<dim>3584</dim>
				</port>
				<port id="1" precision="FP16">
					<dim>3584</dim>
					<dim>1</dim>
				</port>
			</input>
			<output>
				<port id="2" precision="FP16">
					<dim>3584</dim>
					<dim>3584</dim>
				</port>
			</output>
		</layer>
		<layer id="46" name="self.model.layers.0.self_attn.q_proj.weight/scale" type="Const" version="opset1">
			<data element_type="f16" shape="3584, 1" offset="558330928" size="7168" />
			<output>
				<port id="0" precision="FP16">
					<dim>3584</dim>
					<dim>1</dim>
				</port>
			</output>
		</layer>
		<layer id="47" name="self.model.layers.0.self_attn.q_proj.weight/fq_weights_1" type="Multiply" version="opset1">
			<data auto_broadcast="numpy" />
			<input>
				<port id="0" precision="FP16">
					<dim>3584</dim>
					<dim>3584</dim>
				</port>
				<port id="1" precision="FP16">
					<dim>3584</dim>
					<dim>1</dim>
				</port>
			</input>
			<output>
				<port id="2" precision="FP16">
					<dim>3584</dim>
					<dim>3584</dim>
				</port>
			</output>
		</layer>
		<layer id="48" name="__module.model.layers.0.self_attn.q_proj/ov_ext::linear/Convert" type="Convert" version="opset1">
			<data destination_type="f32" />
			<rt_info>
				<attribute name="decompression" version="0" />
			</rt_info>
			<input>
				<port id="0" precision="FP16">
					<dim>3584</dim>
					<dim>3584</dim>
				</port>
			</input>
			<output>
				<port id="1" precision="FP32">
					<dim>3584</dim>
					<dim>3584</dim>
				</port>
			</output>
		</layer>
		<layer id="49" name="__module.model.layers.0.self_attn.q_proj/ov_ext::linear/MatMul" type="MatMul" version="opset1">
			<data transpose_a="false" transpose_b="true" />
			<input>
				<port id="0" precision="FP32">
					<dim>-1</dim>
					<dim>-1</dim>
					<dim>3584</dim>
				</port>
				<port id="1" precision="FP32">
					<dim>3584</dim>
					<dim>3584</dim>
				</port>
			</input>
			<output>
				<port id="2" precision="FP32">
					<dim>-1</dim>
					<dim>-1</dim>
					<dim>3584</dim>
				</port>
			</output>
		</layer>
		<layer id="50" name="self.model.layers.0.self_attn.q_proj.bias" type="Const" version="opset1">
			<data element_type="bf16" shape="3584" offset="558338096" size="7168" />
			<output>
				<port id="0" precision="BF16" names="self.model.layers.0.self_attn.q_proj.bias">
					<dim>3584</dim>
				</port>
			</output>
		</layer>
		<layer id="51" name="__module.model.layers.0.self_attn.q_proj/ov_ext::linear/Convert_1" type="Convert" version="opset1">
			<data destination_type="f32" />
			<rt_info>
				<attribute name="decompression" version="0" />
			</rt_info>
			<input>
				<port id="0" precision="BF16">
					<dim>3584</dim>
				</port>
			</input>
			<output>
				<port id="1" precision="FP32">
					<dim>3584</dim>
				</port>
			</output>
		</layer>
		<layer id="52" name="__module.model.layers.0.self_attn.q_proj/ov_ext::linear/Add" type="Add" version="opset1">
			<data auto_broadcast="numpy" />
			<input>
				<port id="0" precision="FP32">
					<dim>-1</dim>
					<dim>-1</dim>
					<dim>3584</dim>
				</port>
				<port id="1" precision="FP32">
					<dim>3584</dim>
				</port>
			</input>
			<output>
				<port id="2" precision="FP32" names="382">
					<dim>-1</dim>
					<dim>-1</dim>
					<dim>3584</dim>
				</port>
			</output>
		</layer>
		<layer id="53" name="Constant_82897" type="Const" version="opset1">
			<data element_type="i64" shape="4" offset="558345264" size="32" />
			<output>
				<port id="0" precision="I64">
					<dim>4</dim>
				</port>
			</output>
		</layer>
		<layer id="54" name="__module.model.layers.0.self_attn/aten::view/Reshape" type="Reshape" version="opset1">
			<data special_zero="true" />
			<input>
				<port id="0" precision="FP32">
					<dim>-1</dim>
					<dim>-1</dim>
					<dim>3584</dim>
				</port>
				<port id="1" precision="I64">
					<dim>4</dim>
				</port>
			</input>
			<output>
				<port id="2" precision="FP32" names="384">
					<dim>-1</dim>
					<dim>-1</dim>
					<dim>28</dim>
					<dim>128</dim>
				</port>
			</output>
		</layer>
		<layer id="55" name="__module.model.layers.0.self_attn/aten::transpose/Constant" type="Const" version="opset1">
			<data element_type="i32" shape="4" offset="558345296" size="16" />
			<output>
				<port id="0" precision="I32">
					<dim>4</dim>
				</port>
			</output>
		</layer>
		<layer id="56" name="__module.model.layers.0.self_attn/aten::transpose/Transpose" type="Transpose" version="opset1">
			<input>
				<port id="0" precision="FP32">
					<dim>-1</dim>
					<dim>-1</dim>
					<dim>28</dim>
					<dim>128</dim>
				</port>
				<port id="1" precision="I32">
					<dim>4</dim>
				</port>
			</input>
			<output>
				<port id="2" precision="FP32" names="385,q.1">
					<dim>-1</dim>
					<dim>28</dim>
					<dim>-1</dim>
					<dim>128</dim>
				</port>
			</output>
		</layer>
		<layer id="57" name="__module.model.rotary_emb/aten::to/Convert" type="Const" version="opset1">
			<data element_type="f32" shape="1, 64, 1" offset="558345312" size="256" />
			<output>
				<port id="0" precision="FP32" names="333">
					<dim>1</dim>
					<dim>64</dim>
					<dim>1</dim>
				</port>
			</output>
		</layer>
		<layer id="58" name="ShapeOf_76180" type="ShapeOf" version="opset3">
			<data output_type="i64" />
			<input>
				<port id="0" precision="FP32">
					<dim>-1</dim>
					<dim>-1</dim>
					<dim>3584</dim>
				</port>
			</input>
			<output>
				<port id="1" precision="I64">
					<dim>3</dim>
				</port>
			</output>
		</layer>
		<layer id="59" name="Constant_76181" type="Const" version="opset1">
			<data element_type="i64" shape="1" offset="4" size="8" />
			<output>
				<port id="0" precision="I64">
					<dim>1</dim>
				</port>
			</output>
		</layer>
		<layer id="60" name="Constant_76182" type="Const" version="opset1">
			<data element_type="i64" shape="" offset="4" size="8" />
			<output>
				<port id="0" precision="I64" />
			</output>
		</layer>
		<layer id="61" name="Gather_76183" type="Gather" version="opset8">
			<data batch_dims="0" />
			<input>
				<port id="0" precision="I64">
					<dim>3</dim>
				</port>
				<port id="1" precision="I64">
					<dim>1</dim>
				</port>
				<port id="2" precision="I64" />
			</input>
			<output>
				<port id="3" precision="I64" names="1068,1084,1226,1242,1384,1400,1542,1558,1700,1716,1858,1874,2016,2032,2174,2190,2332,2348,2490,2506,2648,2664,2806,2822,2964,2980,3122,3138,3280,3296,334,3438,3454,3596,3612,3754,3770,3912,3928,4070,4086,4228,4244,436,4386,4402,452,4544,4560,4702,4718,594,610,752,768,910,926">
					<dim>1</dim>
				</port>
			</output>
		</layer>
		<layer id="62" name="Constant_64356" type="Const" version="opset1">
			<data element_type="i64" shape="1" offset="558345568" size="8" />
			<output>
				<port id="0" precision="I64">
					<dim>1</dim>
				</port>
			</output>
		</layer>
		<layer id="63" name="Constant_64358" type="Const" version="opset1">
			<data element_type="i64" shape="1" offset="558345568" size="8" />
			<output>
				<port id="0" precision="I64">
					<dim>1</dim>
				</port>
			</output>
		</layer>
		<layer id="64" name="__module.model.rotary_emb/prim::ListConstruct/SequenceMark" type="Concat" version="opset1">
			<data axis="0" />
			<input>
				<port id="0" precision="I64">
					<dim>1</dim>
				</port>
				<port id="1" precision="I64">
					<dim>1</dim>
				</port>
				<port id="2" precision="I64">
					<dim>1</dim>
				</port>
			</input>
			<output>
				<port id="3" precision="I64">
					<dim>3</dim>
				</port>
			</output>
		</layer>
		<layer id="65" name="__module.model.rotary_emb/aten::expand/Broadcast" type="Broadcast" version="opset3">
			<data mode="bidirectional" />
			<input>
				<port id="0" precision="FP32">
					<dim>1</dim>
					<dim>64</dim>
					<dim>1</dim>
				</port>
				<port id="1" precision="I64">
					<dim>3</dim>
				</port>
			</input>
			<output>
				<port id="2" precision="FP32" names="336,337,342,inv_freq_expanded,inv_freq_expanded.1">
					<dim>-1</dim>
					<dim>64</dim>
					<dim>1</dim>
				</port>
			</output>
		</layer>
		<layer id="66" name="218" type="Const" version="opset1">
			<data element_type="i64" shape="" offset="558345568" size="8" />
			<output>
				<port id="0" precision="I64" names="218" />
			</output>
		</layer>
		<layer id="67" name="__module.model.rotary_emb/aten::unsqueeze/Unsqueeze_2" type="Unsqueeze" version="opset1">
			<input>
				<port id="0" precision="I64">
					<dim>-1</dim>
					<dim>-1</dim>
				</port>
				<port id="1" precision="I64" />
			</input>
			<output>
				<port id="2" precision="I64" names="339,340">
					<dim>-1</dim>
					<dim>1</dim>
					<dim>-1</dim>
				</port>
			</output>
		</layer>
		<layer id="68" name="__module.model.rotary_emb/aten::to/Convert_3" type="Convert" version="opset1">
			<data destination_type="f32" />
			<input>
				<port id="0" precision="I64">
					<dim>-1</dim>
					<dim>1</dim>
					<dim>-1</dim>
				</port>
			</input>
			<output>
				<port id="1" precision="FP32" names="341,343,position_ids_expanded,position_ids_expanded.1">
					<dim>-1</dim>
					<dim>1</dim>
					<dim>-1</dim>
				</port>
			</output>
		</layer>
		<layer id="69" name="__module.model.rotary_emb/aten::matmul/MatMul" type="MatMul" version="opset1">
			<data transpose_a="false" transpose_b="false" />
			<input>
				<port id="0" precision="FP32">
					<dim>-1</dim>
					<dim>64</dim>
					<dim>1</dim>
				</port>
				<port id="1" precision="FP32">
					<dim>-1</dim>
					<dim>1</dim>
					<dim>-1</dim>
				</port>
			</input>
			<output>
				<port id="2" precision="FP32" names="344">
					<dim>-1</dim>
					<dim>64</dim>
					<dim>-1</dim>
				</port>
			</output>
		</layer>
		<layer id="70" name="__module.model.rotary_emb/aten::transpose/Constant" type="Const" version="opset1">
			<data element_type="i32" shape="3" offset="558345576" size="12" />
			<output>
				<port id="0" precision="I32">
					<dim>3</dim>
				</port>
			</output>
		</layer>
		<layer id="71" name="__module.model.rotary_emb/aten::transpose/Transpose" type="Transpose" version="opset1">
			<input>
				<port id="0" precision="FP32">
					<dim>-1</dim>
					<dim>64</dim>
					<dim>-1</dim>
				</port>
				<port id="1" precision="I32">
					<dim>3</dim>
				</port>
			</input>
			<output>
				<port id="2" precision="FP32" names="345,freqs">
					<dim>-1</dim>
					<dim>-1</dim>
					<dim>64</dim>
				</port>
			</output>
		</layer>
		<layer id="72" name="__module.model.rotary_emb/aten::cat/Concat" type="Concat" version="opset1">
			<data axis="-1" />
			<input>
				<port id="0" precision="FP32">
					<dim>-1</dim>
					<dim>-1</dim>
					<dim>64</dim>
				</port>
				<port id="1" precision="FP32">
					<dim>-1</dim>
					<dim>-1</dim>
					<dim>64</dim>
				</port>
			</input>
			<output>
				<port id="2" precision="FP32" names="347,emb">
					<dim>-1</dim>
					<dim>-1</dim>
					<dim>128</dim>
				</port>
			</output>
		</layer>
		<layer id="73" name="__module.model.rotary_emb/aten::cos/Cos" type="Cos" version="opset1">
			<input>
				<port id="0" precision="FP32">
					<dim>-1</dim>
					<dim>-1</dim>
					<dim>128</dim>
				</port>
			</input>
			<output>
				<port id="1" precision="FP32" names="348,349,352,cos.1,cos.3">
					<dim>-1</dim>
					<dim>-1</dim>
					<dim>128</dim>
				</port>
			</output>
		</layer>
		<layer id="74" name="__module.model.layers.0.self_attn/aten::unsqueeze/Unsqueeze" type="Unsqueeze" version="opset1">
			<input>
				<port id="0" precision="FP32">
					<dim>-1</dim>
					<dim>-1</dim>
					<dim>128</dim>
				</port>
				<port id="1" precision="I64" />
			</input>
			<output>
				<port id="2" precision="FP32" names="1030,1188,1346,1504,1662,1820,1978,2136,2294,2452,2610,2768,2926,3084,3242,3400,3558,3716,3874,398,4032,4190,4348,4506,4664,556,714,872,cos,cos.11,cos.13,cos.15,cos.17,cos.19,cos.21,cos.23,cos.25,cos.27,cos.29,cos.31,cos.33,cos.35,cos.37,cos.39,cos.41,cos.43,cos.45,cos.47,cos.49,cos.5,cos.51,cos.53,cos.55,cos.57,cos.7,cos.9">
					<dim>-1</dim>
					<dim>1</dim>
					<dim>-1</dim>
					<dim>128</dim>
				</port>
			</output>
		</layer>
		<layer id="75" name="__module.model.layers.0.self_attn/aten::mul/Multiply" type="Multiply" version="opset1">
			<data auto_broadcast="numpy" />
			<input>
				<port id="0" precision="FP32">
					<dim>-1</dim>
					<dim>28</dim>
					<dim>-1</dim>
					<dim>128</dim>
				</port>
				<port id="1" precision="FP32">
					<dim>-1</dim>
					<dim>1</dim>
					<dim>-1</dim>
					<dim>128</dim>
				</port>
			</input>
			<output>
				<port id="2" precision="FP32" names="400">
					<dim>-1</dim>
					<dim>28</dim>
					<dim>-1</dim>
					<dim>128</dim>
				</port>
			</output>
		</layer>
		<layer id="76" name="Constant_713" type="Const" version="opset1">
			<data element_type="i64" shape="1" offset="558345588" size="8" />
			<output>
				<port id="0" precision="I64">
					<dim>1</dim>
				</port>
			</output>
		</layer>
		<layer id="77" name="Constant_715" type="Const" version="opset1">
			<data element_type="i64" shape="1" offset="558345596" size="8" />
			<output>
				<port id="0" precision="I64">
					<dim>1</dim>
				</port>
			</output>
		</layer>
		<layer id="78" name="Constant_717" type="Const" version="opset1">
			<data element_type="i64" shape="1" offset="558345568" size="8" />
			<output>
				<port id="0" precision="I64">
					<dim>1</dim>
				</port>
			</output>
		</layer>
		<layer id="79" name="Constant_669" type="Const" version="opset1">
			<data element_type="i64" shape="1" offset="558345604" size="8" />
			<output>
				<port id="0" precision="I64">
					<dim>1</dim>
				</port>
			</output>
		</layer>
		<layer id="80" name="__module.model.layers.0.self_attn/aten::slice/Slice" type="Slice" version="opset8">
			<input>
				<port id="0" precision="FP32">
					<dim>-1</dim>
					<dim>28</dim>
					<dim>-1</dim>
					<dim>128</dim>
				</port>
				<port id="1" precision="I64">
					<dim>1</dim>
				</port>
				<port id="2" precision="I64">
					<dim>1</dim>
				</port>
				<port id="3" precision="I64">
					<dim>1</dim>
				</port>
				<port id="4" precision="I64">
					<dim>1</dim>
				</port>
			</input>
			<output>
				<port id="5" precision="FP32" names="410,x2.1">
					<dim>-1</dim>
					<dim>28</dim>
					<dim>-1</dim>
					<dim>64</dim>
				</port>
			</output>
		</layer>
		<layer id="81" name="__module.model.layers.0.self_attn/aten::neg/Constant" type="Const" version="opset1">
			<data element_type="i32" shape="" offset="558345612" size="4" />
			<output>
				<port id="0" precision="I32" />
			</output>
		</layer>
		<layer id="82" name="__module.model.layers.0.self_attn/aten::neg/ConvertLike" type="Convert" version="opset1">
			<data destination_type="f32" />
			<input>
				<port id="0" precision="I32" />
			</input>
			<output>
				<port id="1" precision="FP32" />
			</output>
		</layer>
		<layer id="83" name="__module.model.layers.0.self_attn/aten::neg/Multiply" type="Multiply" version="opset1">
			<data auto_broadcast="numpy" />
			<input>
				<port id="0" precision="FP32">
					<dim>-1</dim>
					<dim>28</dim>
					<dim>-1</dim>
					<dim>64</dim>
				</port>
				<port id="1" precision="FP32" />
			</input>
			<output>
				<port id="2" precision="FP32" names="411">
					<dim>-1</dim>
					<dim>28</dim>
					<dim>-1</dim>
					<dim>64</dim>
				</port>
			</output>
		</layer>
		<layer id="84" name="Constant_610" type="Const" version="opset1">
			<data element_type="i64" shape="1" offset="4" size="8" />
			<output>
				<port id="0" precision="I64">
					<dim>1</dim>
				</port>
			</output>
		</layer>
		<layer id="85" name="Constant_654" type="Const" version="opset1">
			<data element_type="i64" shape="1" offset="558345588" size="8" />
			<output>
				<port id="0" precision="I64">
					<dim>1</dim>
				</port>
			</output>
		</layer>
		<layer id="86" name="Constant_656" type="Const" version="opset1">
			<data element_type="i64" shape="1" offset="558345568" size="8" />
			<output>
				<port id="0" precision="I64">
					<dim>1</dim>
				</port>
			</output>
		</layer>
		<layer id="87" name="Constant_608" type="Const" version="opset1">
			<data element_type="i64" shape="1" offset="558345604" size="8" />
			<output>
				<port id="0" precision="I64">
					<dim>1</dim>
				</port>
			</output>
		</layer>
		<layer id="88" name="__module.model.layers.0.self_attn/aten::slice/Slice_1" type="Slice" version="opset8">
			<input>
				<port id="0" precision="FP32">
					<dim>-1</dim>
					<dim>28</dim>
					<dim>-1</dim>
					<dim>128</dim>
				</port>
				<port id="1" precision="I64">
					<dim>1</dim>
				</port>
				<port id="2" precision="I64">
					<dim>1</dim>
				</port>
				<port id="3" precision="I64">
					<dim>1</dim>
				</port>
				<port id="4" precision="I64">
					<dim>1</dim>
				</port>
			</input>
			<output>
				<port id="5" precision="FP32" names="405,x1.1">
					<dim>-1</dim>
					<dim>28</dim>
					<dim>-1</dim>
					<dim>64</dim>
				</port>
			</output>
		</layer>
		<layer id="89" name="__module.model.layers.0.self_attn/aten::cat/Concat" type="Concat" version="opset1">
			<data axis="-1" />
			<input>
				<port id="0" precision="FP32">
					<dim>-1</dim>
					<dim>28</dim>
					<dim>-1</dim>
					<dim>64</dim>
				</port>
				<port id="1" precision="FP32">
					<dim>-1</dim>
					<dim>28</dim>
					<dim>-1</dim>
					<dim>64</dim>
				</port>
			</input>
			<output>
				<port id="2" precision="FP32" names="413">
					<dim>-1</dim>
					<dim>28</dim>
					<dim>-1</dim>
					<dim>128</dim>
				</port>
			</output>
		</layer>
		<layer id="90" name="__module.model.rotary_emb/aten::sin/Sin" type="Sin" version="opset1">
			<input>
				<port id="0" precision="FP32">
					<dim>-1</dim>
					<dim>-1</dim>
					<dim>128</dim>
				</port>
			</input>
			<output>
				<port id="1" precision="FP32" names="350,351,353,sin.1,sin.3">
					<dim>-1</dim>
					<dim>-1</dim>
					<dim>128</dim>
				</port>
			</output>
		</layer>
		<layer id="91" name="__module.model.layers.0.self_attn/aten::unsqueeze/Unsqueeze_1" type="Unsqueeze" version="opset1">
			<input>
				<port id="0" precision="FP32">
					<dim>-1</dim>
					<dim>-1</dim>
					<dim>128</dim>
				</port>
				<port id="1" precision="I64" />
			</input>
			<output>
				<port id="2" precision="FP32" names="1031,1189,1347,1505,1663,1821,1979,2137,2295,2453,2611,2769,2927,3085,3243,3401,3559,3717,3875,399,4033,4191,4349,4507,4665,557,715,873,sin,sin.11,sin.13,sin.15,sin.17,sin.19,sin.21,sin.23,sin.25,sin.27,sin.29,sin.31,sin.33,sin.35,sin.37,sin.39,sin.41,sin.43,sin.45,sin.47,sin.49,sin.5,sin.51,sin.53,sin.55,sin.57,sin.7,sin.9">
					<dim>-1</dim>
					<dim>1</dim>
					<dim>-1</dim>
					<dim>128</dim>
				</port>
			</output>
		</layer>
		<layer id="92" name="__module.model.layers.0.self_attn/aten::mul/Multiply_1" type="Multiply" version="opset1">
			<data auto_broadcast="numpy" />
			<input>
				<port id="0" precision="FP32">
					<dim>-1</dim>
					<dim>28</dim>
					<dim>-1</dim>
					<dim>128</dim>
				</port>
				<port id="1" precision="FP32">
					<dim>-1</dim>
					<dim>1</dim>
					<dim>-1</dim>
					<dim>128</dim>
				</port>
			</input>
			<output>
				<port id="2" precision="FP32" names="414">
					<dim>-1</dim>
					<dim>28</dim>
					<dim>-1</dim>
					<dim>128</dim>
				</port>
			</output>
		</layer>
		<layer id="93" name="__module.model.layers.0.self_attn/aten::add/Add" type="Add" version="opset1">
			<data auto_broadcast="numpy" />
			<input>
				<port id="0" precision="FP32">
					<dim>-1</dim>
					<dim>28</dim>
					<dim>-1</dim>
					<dim>128</dim>
				</port>
				<port id="1" precision="FP32">
					<dim>-1</dim>
					<dim>28</dim>
					<dim>-1</dim>
					<dim>128</dim>
				</port>
			</input>
			<output>
				<port id="2" precision="FP32" names="415,query.1">
					<dim>-1</dim>
					<dim>28</dim>
					<dim>-1</dim>
					<dim>128</dim>
				</port>
			</output>
		</layer>
		<layer id="94" name="Constant_86437" type="Const" version="opset1">
			<data element_type="f32" shape="" offset="0" size="4" />
			<output>
				<port id="0" precision="FP32" />
			</output>
		</layer>
		<layer id="95" name="Constant_86430" type="Const" version="opset1">
			<data element_type="i64" shape="1" offset="12" size="8" />
			<output>
				<port id="0" precision="I64">
					<dim>1</dim>
				</port>
			</output>
		</layer>
		<layer id="96" name="Constant_86432" type="Const" version="opset1">
			<data element_type="i64" shape="1" offset="4" size="8" />
			<output>
				<port id="0" precision="I64">
					<dim>1</dim>
				</port>
			</output>
		</layer>
		<layer id="97" name="Constant_86434" type="Const" version="opset1">
			<data element_type="i64" shape="1" offset="20" size="8" />
			<output>
				<port id="0" precision="I64">
					<dim>1</dim>
				</port>
			</output>
		</layer>
		<layer id="98" name="Concat_86435" type="Concat" version="opset1">
			<data axis="0" />
			<input>
				<port id="0" precision="I64">
					<dim>1</dim>
				</port>
				<port id="1" precision="I64">
					<dim>1</dim>
				</port>
				<port id="2" precision="I64">
					<dim>1</dim>
				</port>
				<port id="3" precision="I64">
					<dim>1</dim>
				</port>
			</input>
			<output>
				<port id="4" precision="I64">
					<dim>4</dim>
				</port>
			</output>
		</layer>
		<layer id="99" name="Broadcast_86438" type="Broadcast" version="opset3">
			<data mode="numpy" />
			<input>
				<port id="0" precision="FP32" />
				<port id="1" precision="I64">
					<dim>4</dim>
				</port>
			</input>
			<output>
				<port id="2" precision="FP32">
					<dim>-1</dim>
					<dim>4</dim>
					<dim>0</dim>
					<dim>128</dim>
				</port>
			</output>
		</layer>
		<layer id="100" name="ReadValue_85889" type="ReadValue" version="opset6">
			<data variable_id="past_key_values.0.keypresent.0.key" variable_type="f32" variable_shape="?,4,?,128" />
			<input>
				<port id="0" precision="FP32">
					<dim>-1</dim>
					<dim>4</dim>
					<dim>0</dim>
					<dim>128</dim>
				</port>
			</input>
			<output>
				<port id="1" precision="FP32" names="past_key_values.0.key">
					<dim>-1</dim>
					<dim>4</dim>
					<dim>-1</dim>
					<dim>128</dim>
				</port>
			</output>
		</layer>
		<layer id="101" name="Constant_85312" type="Const" version="opset1">
			<data element_type="i64" shape="" offset="4" size="8" />
			<output>
				<port id="0" precision="I64" />
			</output>
		</layer>
		<layer id="102" name="Gather_85313" type="Gather" version="opset8">
			<data batch_dims="0" />
			<input>
				<port id="0" precision="FP32">
					<dim>-1</dim>
					<dim>4</dim>
					<dim>-1</dim>
					<dim>128</dim>
				</port>
				<port id="1" precision="I32">
					<dim>-1</dim>
				</port>
				<port id="2" precision="I64" />
			</input>
			<output>
				<port id="3" precision="FP32">
					<dim>-1</dim>
					<dim>4</dim>
					<dim>-1</dim>
					<dim>128</dim>
				</port>
			</output>
		</layer>
		<layer id="103" name="self.model.layers.0.self_attn.k_proj.weight" type="Const" version="opset1">
			<data element_type="u8" shape="512, 3584" offset="558345616" size="1835008" />
			<output>
				<port id="0" precision="U8">
					<dim>512</dim>
					<dim>3584</dim>
				</port>
			</output>
		</layer>
		<layer id="104" name="Convert_835913" type="Convert" version="opset1">
			<data destination_type="f16" />
			<input>
				<port id="0" precision="U8">
					<dim>512</dim>
					<dim>3584</dim>
				</port>
			</input>
			<output>
				<port id="1" precision="FP16">
					<dim>512</dim>
					<dim>3584</dim>
				</port>
			</output>
		</layer>
		<layer id="105" name="self.model.layers.0.self_attn.k_proj.weight/zero_point" type="Const" version="opset1">
			<data element_type="u8" shape="512, 1" offset="560180624" size="512" />
			<output>
				<port id="0" precision="U8">
					<dim>512</dim>
					<dim>1</dim>
				</port>
			</output>
		</layer>
		<layer id="106" name="Convert_835916" type="Convert" version="opset1">
			<data destination_type="f16" />
			<input>
				<port id="0" precision="U8">
					<dim>512</dim>
					<dim>1</dim>
				</port>
			</input>
			<output>
				<port id="1" precision="FP16">
					<dim>512</dim>
					<dim>1</dim>
				</port>
			</output>
		</layer>
		<layer id="107" name="self.model.layers.0.self_attn.k_proj.weight/zero_point/subtract" type="Subtract" version="opset1">
			<data auto_broadcast="numpy" />
			<input>
				<port id="0" precision="FP16">
					<dim>512</dim>
					<dim>3584</dim>
				</port>
				<port id="1" precision="FP16">
					<dim>512</dim>
					<dim>1</dim>
				</port>
			</input>
			<output>
				<port id="2" precision="FP16">
					<dim>512</dim>
					<dim>3584</dim>
				</port>
			</output>
		</layer>
		<layer id="108" name="self.model.layers.0.self_attn.k_proj.weight/scale" type="Const" version="opset1">
			<data element_type="f16" shape="512, 1" offset="560181136" size="1024" />
			<output>
				<port id="0" precision="FP16">
					<dim>512</dim>
					<dim>1</dim>
				</port>
			</output>
		</layer>
		<layer id="109" name="self.model.layers.0.self_attn.k_proj.weight/fq_weights_1" type="Multiply" version="opset1">
			<data auto_broadcast="numpy" />
			<input>
				<port id="0" precision="FP16">
					<dim>512</dim>
					<dim>3584</dim>
				</port>
				<port id="1" precision="FP16">
					<dim>512</dim>
					<dim>1</dim>
				</port>
			</input>
			<output>
				<port id="2" precision="FP16">
					<dim>512</dim>
					<dim>3584</dim>
				</port>
			</output>
		</layer>
		<layer id="110" name="__module.model.layers.0.self_attn.k_proj/ov_ext::linear/Convert" type="Convert" version="opset1">
			<data destination_type="f32" />
			<rt_info>
				<attribute name="decompression" version="0" />
			</rt_info>
			<input>
				<port id="0" precision="FP16">
					<dim>512</dim>
					<dim>3584</dim>
				</port>
			</input>
			<output>
				<port id="1" precision="FP32">
					<dim>512</dim>
					<dim>3584</dim>
				</port>
			</output>
		</layer>
		<layer id="111" name="__module.model.layers.0.self_attn.k_proj/ov_ext::linear/MatMul" type="MatMul" version="opset1">
			<data transpose_a="false" transpose_b="true" />
			<input>
				<port id="0" precision="FP32">
					<dim>-1</dim>
					<dim>-1</dim>
					<dim>3584</dim>
				</port>
				<port id="1" precision="FP32">
					<dim>512</dim>
					<dim>3584</dim>
				</port>
			</input>
			<output>
				<port id="2" precision="FP32">
					<dim>-1</dim>
					<dim>-1</dim>
					<dim>512</dim>
				</port>
			</output>
		</layer>
		<layer id="112" name="self.model.layers.0.self_attn.k_proj.bias" type="Const" version="opset1">
			<data element_type="bf16" shape="512" offset="560182160" size="1024" />
			<output>
				<port id="0" precision="BF16" names="self.model.layers.0.self_attn.k_proj.bias">
					<dim>512</dim>
				</port>
			</output>
		</layer>
		<layer id="113" name="__module.model.layers.0.self_attn.k_proj/ov_ext::linear/Convert_1" type="Convert" version="opset1">
			<data destination_type="f32" />
			<rt_info>
				<attribute name="decompression" version="0" />
			</rt_info>
			<input>
				<port id="0" precision="BF16">
					<dim>512</dim>
				</port>
			</input>
			<output>
				<port id="1" precision="FP32">
					<dim>512</dim>
				</port>
			</output>
		</layer>
		<layer id="114" name="__module.model.layers.0.self_attn.k_proj/ov_ext::linear/Add" type="Add" version="opset1">
			<data auto_broadcast="numpy" />
			<input>
				<port id="0" precision="FP32">
					<dim>-1</dim>
					<dim>-1</dim>
					<dim>512</dim>
				</port>
				<port id="1" precision="FP32">
					<dim>512</dim>
				</port>
			</input>
			<output>
				<port id="2" precision="FP32" names="388">
					<dim>-1</dim>
					<dim>-1</dim>
					<dim>512</dim>
				</port>
			</output>
		</layer>
		<layer id="115" name="Constant_82898" type="Const" version="opset1">
			<data element_type="i64" shape="4" offset="560183184" size="32" />
			<output>
				<port id="0" precision="I64">
					<dim>4</dim>
				</port>
			</output>
		</layer>
		<layer id="116" name="__module.model.layers.0.self_attn/aten::view/Reshape_1" type="Reshape" version="opset1">
			<data special_zero="true" />
			<input>
				<port id="0" precision="FP32">
					<dim>-1</dim>
					<dim>-1</dim>
					<dim>512</dim>
				</port>
				<port id="1" precision="I64">
					<dim>4</dim>
				</port>
			</input>
			<output>
				<port id="2" precision="FP32" names="390">
					<dim>-1</dim>
					<dim>-1</dim>
					<dim>4</dim>
					<dim>128</dim>
				</port>
			</output>
		</layer>
		<layer id="117" name="__module.model.layers.0.self_attn/aten::transpose/Constant_1" type="Const" version="opset1">
			<data element_type="i32" shape="4" offset="558345296" size="16" />
			<output>
				<port id="0" precision="I32">
					<dim>4</dim>
				</port>
			</output>
		</layer>
		<layer id="118" name="__module.model.layers.0.self_attn/aten::transpose/Transpose_1" type="Transpose" version="opset1">
			<input>
				<port id="0" precision="FP32">
					<dim>-1</dim>
					<dim>-1</dim>
					<dim>4</dim>
					<dim>128</dim>
				</port>
				<port id="1" precision="I32">
					<dim>4</dim>
				</port>
			</input>
			<output>
				<port id="2" precision="FP32" names="391,k.1">
					<dim>-1</dim>
					<dim>4</dim>
					<dim>-1</dim>
					<dim>128</dim>
				</port>
			</output>
		</layer>
		<layer id="119" name="__module.model.layers.0.self_attn/aten::mul/Multiply_2" type="Multiply" version="opset1">
			<data auto_broadcast="numpy" />
			<input>
				<port id="0" precision="FP32">
					<dim>-1</dim>
					<dim>4</dim>
					<dim>-1</dim>
					<dim>128</dim>
				</port>
				<port id="1" precision="FP32">
					<dim>-1</dim>
					<dim>1</dim>
					<dim>-1</dim>
					<dim>128</dim>
				</port>
			</input>
			<output>
				<port id="2" precision="FP32" names="416">
					<dim>-1</dim>
					<dim>4</dim>
					<dim>-1</dim>
					<dim>128</dim>
				</port>
			</output>
		</layer>
		<layer id="120" name="Constant_855" type="Const" version="opset1">
			<data element_type="i64" shape="1" offset="558345588" size="8" />
			<output>
				<port id="0" precision="I64">
					<dim>1</dim>
				</port>
			</output>
		</layer>
		<layer id="121" name="Constant_857" type="Const" version="opset1">
			<data element_type="i64" shape="1" offset="558345596" size="8" />
			<output>
				<port id="0" precision="I64">
					<dim>1</dim>
				</port>
			</output>
		</layer>
		<layer id="122" name="Constant_859" type="Const" version="opset1">
			<data element_type="i64" shape="1" offset="558345568" size="8" />
			<output>
				<port id="0" precision="I64">
					<dim>1</dim>
				</port>
			</output>
		</layer>
		<layer id="123" name="Constant_811" type="Const" version="opset1">
			<data element_type="i64" shape="1" offset="558345604" size="8" />
			<output>
				<port id="0" precision="I64">
					<dim>1</dim>
				</port>
			</output>
		</layer>
		<layer id="124" name="__module.model.layers.0.self_attn/aten::slice/Slice_2" type="Slice" version="opset8">
			<input>
				<port id="0" precision="FP32">
					<dim>-1</dim>
					<dim>4</dim>
					<dim>-1</dim>
					<dim>128</dim>
				</port>
				<port id="1" precision="I64">
					<dim>1</dim>
				</port>
				<port id="2" precision="I64">
					<dim>1</dim>
				</port>
				<port id="3" precision="I64">
					<dim>1</dim>
				</port>
				<port id="4" precision="I64">
					<dim>1</dim>
				</port>
			</input>
			<output>
				<port id="5" precision="FP32" names="426,x2.3">
					<dim>-1</dim>
					<dim>4</dim>
					<dim>-1</dim>
					<dim>64</dim>
				</port>
			</output>
		</layer>
		<layer id="125" name="__module.model.layers.0.self_attn/aten::neg/Constant_1" type="Const" version="opset1">
			<data element_type="i32" shape="" offset="558345612" size="4" />
			<output>
				<port id="0" precision="I32" />
			</output>
		</layer>
		<layer id="126" name="__module.model.layers.0.self_attn/aten::neg/ConvertLike_1" type="Convert" version="opset1">
			<data destination_type="f32" />
			<input>
				<port id="0" precision="I32" />
			</input>
			<output>
				<port id="1" precision="FP32" />
			</output>
		</layer>
		<layer id="127" name="__module.model.layers.0.self_attn/aten::neg/Multiply_1" type="Multiply" version="opset1">
			<data auto_broadcast="numpy" />
			<input>
				<port id="0" precision="FP32">
					<dim>-1</dim>
					<dim>4</dim>
					<dim>-1</dim>
					<dim>64</dim>
				</port>
				<port id="1" precision="FP32" />
			</input>
			<output>
				<port id="2" precision="FP32" names="427">
					<dim>-1</dim>
					<dim>4</dim>
					<dim>-1</dim>
					<dim>64</dim>
				</port>
			</output>
		</layer>
		<layer id="128" name="Constant_752" type="Const" version="opset1">
			<data element_type="i64" shape="1" offset="4" size="8" />
			<output>
				<port id="0" precision="I64">
					<dim>1</dim>
				</port>
			</output>
		</layer>
		<layer id="129" name="Constant_796" type="Const" version="opset1">
			<data element_type="i64" shape="1" offset="558345588" size="8" />
			<output>
				<port id="0" precision="I64">
					<dim>1</dim>
				</port>
			</output>
		</layer>
		<layer id="130" name="Constant_798" type="Const" version="opset1">
			<data element_type="i64" shape="1" offset="558345568" size="8" />
			<output>
				<port id="0" precision="I64">
					<dim>1</dim>
				</port>
			</output>
		</layer>
		<layer id="131" name="Constant_750" type="Const" version="opset1">
			<data element_type="i64" shape="1" offset="558345604" size="8" />
			<output>
				<port id="0" precision="I64">
					<dim>1</dim>
				</port>
			</output>
		</layer>
		<layer id="132" name="__module.model.layers.0.self_attn/aten::slice/Slice_3" type="Slice" version="opset8">
			<input>
				<port id="0" precision="FP32">
					<dim>-1</dim>
					<dim>4</dim>
					<dim>-1</dim>
					<dim>128</dim>
				</port>
				<port id="1" precision="I64">
					<dim>1</dim>
				</port>
				<port id="2" precision="I64">
					<dim>1</dim>
				</port>
				<port id="3" precision="I64">
					<dim>1</dim>
				</port>
				<port id="4" precision="I64">
					<dim>1</dim>
				</port>
			</input>
			<output>
				<port id="5" precision="FP32" names="421,x1.3">
					<dim>-1</dim>
					<dim>4</dim>
					<dim>-1</dim>
					<dim>64</dim>
				</port>
			</output>
		</layer>
		<layer id="133" name="__module.model.layers.0.self_attn/aten::cat/Concat_1" type="Concat" version="opset1">
			<data axis="-1" />
			<input>
				<port id="0" precision="FP32">
					<dim>-1</dim>
					<dim>4</dim>
					<dim>-1</dim>
					<dim>64</dim>
				</port>
				<port id="1" precision="FP32">
					<dim>-1</dim>
					<dim>4</dim>
					<dim>-1</dim>
					<dim>64</dim>
				</port>
			</input>
			<output>
				<port id="2" precision="FP32" names="429">
					<dim>-1</dim>
					<dim>4</dim>
					<dim>-1</dim>
					<dim>128</dim>
				</port>
			</output>
		</layer>
		<layer id="134" name="__module.model.layers.0.self_attn/aten::mul/Multiply_3" type="Multiply" version="opset1">
			<data auto_broadcast="numpy" />
			<input>
				<port id="0" precision="FP32">
					<dim>-1</dim>
					<dim>4</dim>
					<dim>-1</dim>
					<dim>128</dim>
				</port>
				<port id="1" precision="FP32">
					<dim>-1</dim>
					<dim>1</dim>
					<dim>-1</dim>
					<dim>128</dim>
				</port>
			</input>
			<output>
				<port id="2" precision="FP32" names="430">
					<dim>-1</dim>
					<dim>4</dim>
					<dim>-1</dim>
					<dim>128</dim>
				</port>
			</output>
		</layer>
		<layer id="135" name="__module.model.layers.0.self_attn/aten::add/Add_1" type="Add" version="opset1">
			<data auto_broadcast="numpy" />
			<input>
				<port id="0" precision="FP32">
					<dim>-1</dim>
					<dim>4</dim>
					<dim>-1</dim>
					<dim>128</dim>
				</port>
				<port id="1" precision="FP32">
					<dim>-1</dim>
					<dim>4</dim>
					<dim>-1</dim>
					<dim>128</dim>
				</port>
			</input>
			<output>
				<port id="2" precision="FP32" names="431,key_states.1">
					<dim>-1</dim>
					<dim>4</dim>
					<dim>-1</dim>
					<dim>128</dim>
				</port>
			</output>
		</layer>
		<layer id="136" name="__module.model.layers.0.self_attn/aten::cat/Concat_2" type="Concat" version="opset1">
			<data axis="-2" />
			<input>
				<port id="0" precision="FP32">
					<dim>-1</dim>
					<dim>4</dim>
					<dim>-1</dim>
					<dim>128</dim>
				</port>
				<port id="1" precision="FP32">
					<dim>-1</dim>
					<dim>4</dim>
					<dim>-1</dim>
					<dim>128</dim>
				</port>
			</input>
			<output>
				<port id="2" precision="FP32" names="441,442,hidden_states.9">
					<dim>-1</dim>
					<dim>4</dim>
					<dim>-1</dim>
					<dim>128</dim>
				</port>
			</output>
		</layer>
		<layer id="137" name="219" type="Const" version="opset1">
			<data element_type="i64" shape="" offset="560183216" size="8" />
			<output>
				<port id="0" precision="I64" names="219" />
			</output>
		</layer>
		<layer id="138" name="__module.model.layers.0.self_attn/aten::unsqueeze/Unsqueeze_2" type="Unsqueeze" version="opset1">
			<input>
				<port id="0" precision="FP32">
					<dim>-1</dim>
					<dim>4</dim>
					<dim>-1</dim>
					<dim>128</dim>
				</port>
				<port id="1" precision="I64" />
			</input>
			<output>
				<port id="2" precision="FP32" names="443,444,445">
					<dim>-1</dim>
					<dim>4</dim>
					<dim>1</dim>
					<dim>-1</dim>
					<dim>128</dim>
				</port>
			</output>
		</layer>
		<layer id="139" name="__module.model.layers.0.self_attn/aten::size/ShapeOf_2" type="ShapeOf" version="opset3">
			<data output_type="i64" />
			<input>
				<port id="0" precision="FP32">
					<dim>-1</dim>
					<dim>4</dim>
					<dim>-1</dim>
					<dim>128</dim>
				</port>
			</input>
			<output>
				<port id="1" precision="I64">
					<dim>4</dim>
				</port>
			</output>
		</layer>
		<layer id="140" name="Constant_66037" type="Const" version="opset1">
			<data element_type="i64" shape="2" offset="560183224" size="16" />
			<output>
				<port id="0" precision="I64">
					<dim>2</dim>
				</port>
			</output>
		</layer>
		<layer id="141" name="Constant_66038" type="Const" version="opset1">
			<data element_type="i64" shape="" offset="4" size="8" />
			<output>
				<port id="0" precision="I64" />
			</output>
		</layer>
		<layer id="142" name="Gather_66039" type="Gather" version="opset8">
			<data batch_dims="0" />
			<input>
				<port id="0" precision="I64">
					<dim>4</dim>
				</port>
				<port id="1" precision="I64">
					<dim>2</dim>
				</port>
				<port id="2" precision="I64" />
			</input>
			<output>
				<port id="3" precision="I64">
					<dim>2</dim>
				</port>
			</output>
		</layer>
		<layer id="143" name="Constant_64365" type="Const" version="opset1">
			<data element_type="i64" shape="1" offset="560183240" size="8" />
			<output>
				<port id="0" precision="I64">
					<dim>1</dim>
				</port>
			</output>
		</layer>
		<layer id="144" name="ShapeOf_76190" type="ShapeOf" version="opset3">
			<data output_type="i64" />
			<input>
				<port id="0" precision="FP32">
					<dim>-1</dim>
					<dim>4</dim>
					<dim>-1</dim>
					<dim>128</dim>
				</port>
			</input>
			<output>
				<port id="1" precision="I64">
					<dim>4</dim>
				</port>
			</output>
		</layer>
		<layer id="145" name="Constant_76191" type="Const" version="opset1">
			<data element_type="i64" shape="" offset="560183216" size="8" />
			<output>
				<port id="0" precision="I64" />
			</output>
		</layer>
		<layer id="146" name="Constant_76192" type="Const" version="opset1">
			<data element_type="i64" shape="" offset="4" size="8" />
			<output>
				<port id="0" precision="I64" />
			</output>
		</layer>
		<layer id="147" name="Gather_76193" type="Gather" version="opset8">
			<data batch_dims="0" />
			<input>
				<port id="0" precision="I64">
					<dim>4</dim>
				</port>
				<port id="1" precision="I64" />
				<port id="2" precision="I64" />
			</input>
			<output>
				<port id="3" precision="I64" names="281,291" />
			</output>
		</layer>
		<layer id="148" name="Constant_76211" type="Const" version="opset1">
			<data element_type="i64" shape="1" offset="558345568" size="8" />
			<output>
				<port id="0" precision="I64">
					<dim>1</dim>
				</port>
			</output>
		</layer>
		<layer id="149" name="Reshape_76212" type="Reshape" version="opset1">
			<data special_zero="false" />
			<input>
				<port id="0" precision="I64" />
				<port id="1" precision="I64">
					<dim>1</dim>
				</port>
			</input>
			<output>
				<port id="2" precision="I64">
					<dim>1</dim>
				</port>
			</output>
		</layer>
		<layer id="150" name="Constant_76199" type="Const" version="opset1">
			<data element_type="i64" shape="" offset="558345568" size="8" />
			<output>
				<port id="0" precision="I64" />
			</output>
		</layer>
		<layer id="151" name="Constant_76200" type="Const" version="opset1">
			<data element_type="i64" shape="" offset="4" size="8" />
			<output>
				<port id="0" precision="I64" />
			</output>
		</layer>
		<layer id="152" name="Gather_76201" type="Gather" version="opset8">
			<data batch_dims="0" />
			<input>
				<port id="0" precision="I64">
					<dim>3</dim>
				</port>
				<port id="1" precision="I64" />
				<port id="2" precision="I64" />
			</input>
			<output>
				<port id="3" precision="I64" names="283" />
			</output>
		</layer>
		<layer id="153" name="Constant_76213" type="Const" version="opset1">
			<data element_type="i64" shape="1" offset="558345568" size="8" />
			<output>
				<port id="0" precision="I64">
					<dim>1</dim>
				</port>
			</output>
		</layer>
		<layer id="154" name="Reshape_76214" type="Reshape" version="opset1">
			<data special_zero="false" />
			<input>
				<port id="0" precision="I64" />
				<port id="1" precision="I64">
					<dim>1</dim>
				</port>
			</input>
			<output>
				<port id="2" precision="I64">
					<dim>1</dim>
				</port>
			</output>
		</layer>
		<layer id="155" name="Add_76215" type="Add" version="opset1">
			<data auto_broadcast="numpy" />
			<input>
				<port id="0" precision="I64">
					<dim>1</dim>
				</port>
				<port id="1" precision="I64">
					<dim>1</dim>
				</port>
			</input>
			<output>
				<port id="2" precision="I64" names="1071,1100,1229,1258,1387,1416,1545,1574,1703,1732,1861,1890,2019,2048,2177,2206,2335,2364,2493,2522,2651,2680,2809,2838,2967,2996,3125,3154,3283,3312,3441,3470,3599,3628,3757,3786,3915,3944,4073,4102,4231,4260,4389,439,4418,4547,4576,468,4705,4734,597,626,755,784,913,942">
					<dim>1</dim>
				</port>
			</output>
		</layer>
		<layer id="156" name="Constant_64368" type="Const" version="opset1">
			<data element_type="i64" shape="1" offset="20" size="8" />
			<output>
				<port id="0" precision="I64">
					<dim>1</dim>
				</port>
			</output>
		</layer>
		<layer id="157" name="__module.model.layers.0.self_attn/prim::ListConstruct/SequenceMark_2" type="Concat" version="opset1">
			<data axis="0" />
			<input>
				<port id="0" precision="I64">
					<dim>2</dim>
				</port>
				<port id="1" precision="I64">
					<dim>1</dim>
				</port>
				<port id="2" precision="I64">
					<dim>1</dim>
				</port>
				<port id="3" precision="I64">
					<dim>1</dim>
				</port>
			</input>
			<output>
				<port id="4" precision="I64">
					<dim>5</dim>
				</port>
			</output>
		</layer>
		<layer id="158" name="__module.model.layers.0.self_attn/aten::expand/Broadcast" type="Broadcast" version="opset3">
			<data mode="bidirectional" />
			<input>
				<port id="0" precision="FP32">
					<dim>-1</dim>
					<dim>4</dim>
					<dim>1</dim>
					<dim>-1</dim>
					<dim>128</dim>
				</port>
				<port id="1" precision="I64">
					<dim>5</dim>
				</port>
			</input>
			<output>
				<port id="2" precision="FP32" names="447,hidden_states.11">
					<dim>-1</dim>
					<dim>4</dim>
					<dim>7</dim>
					<dim>-1</dim>
					<dim>128</dim>
				</port>
			</output>
		</layer>
		<layer id="159" name="Constant_82899" type="Const" version="opset1">
			<data element_type="i64" shape="4" offset="560183248" size="32" />
			<output>
				<port id="0" precision="I64">
					<dim>4</dim>
				</port>
			</output>
		</layer>
		<layer id="160" name="__module.model.layers.0.self_attn/aten::reshape/Reshape" type="Reshape" version="opset1">
			<data special_zero="true" />
			<input>
				<port id="0" precision="FP32">
					<dim>-1</dim>
					<dim>4</dim>
					<dim>7</dim>
					<dim>-1</dim>
					<dim>128</dim>
				</port>
				<port id="1" precision="I64">
					<dim>4</dim>
				</port>
			</input>
			<output>
				<port id="2" precision="FP32" names="451,key.1">
					<dim>-1</dim>
					<dim>28</dim>
					<dim>-1</dim>
					<dim>128</dim>
				</port>
			</output>
		</layer>
		<layer id="161" name="Constant_86449" type="Const" version="opset1">
			<data element_type="f32" shape="" offset="0" size="4" />
			<output>
				<port id="0" precision="FP32" />
			</output>
		</layer>
		<layer id="162" name="Constant_86442" type="Const" version="opset1">
			<data element_type="i64" shape="1" offset="12" size="8" />
			<output>
				<port id="0" precision="I64">
					<dim>1</dim>
				</port>
			</output>
		</layer>
		<layer id="163" name="Constant_86444" type="Const" version="opset1">
			<data element_type="i64" shape="1" offset="4" size="8" />
			<output>
				<port id="0" precision="I64">
					<dim>1</dim>
				</port>
			</output>
		</layer>
		<layer id="164" name="Constant_86446" type="Const" version="opset1">
			<data element_type="i64" shape="1" offset="20" size="8" />
			<output>
				<port id="0" precision="I64">
					<dim>1</dim>
				</port>
			</output>
		</layer>
		<layer id="165" name="Concat_86447" type="Concat" version="opset1">
			<data axis="0" />
			<input>
				<port id="0" precision="I64">
					<dim>1</dim>
				</port>
				<port id="1" precision="I64">
					<dim>1</dim>
				</port>
				<port id="2" precision="I64">
					<dim>1</dim>
				</port>
				<port id="3" precision="I64">
					<dim>1</dim>
				</port>
			</input>
			<output>
				<port id="4" precision="I64">
					<dim>4</dim>
				</port>
			</output>
		</layer>
		<layer id="166" name="Broadcast_86450" type="Broadcast" version="opset3">
			<data mode="numpy" />
			<input>
				<port id="0" precision="FP32" />
				<port id="1" precision="I64">
					<dim>4</dim>
				</port>
			</input>
			<output>
				<port id="2" precision="FP32">
					<dim>-1</dim>
					<dim>4</dim>
					<dim>0</dim>
					<dim>128</dim>
				</port>
			</output>
		</layer>
		<layer id="167" name="ReadValue_85891" type="ReadValue" version="opset6">
			<data variable_id="past_key_values.0.valuepresent.0.value" variable_type="f32" variable_shape="?,4,?,128" />
			<input>
				<port id="0" precision="FP32">
					<dim>-1</dim>
					<dim>4</dim>
					<dim>0</dim>
					<dim>128</dim>
				</port>
			</input>
			<output>
				<port id="1" precision="FP32" names="past_key_values.0.value">
					<dim>-1</dim>
					<dim>4</dim>
					<dim>-1</dim>
					<dim>128</dim>
				</port>
			</output>
		</layer>
		<layer id="168" name="Constant_85315" type="Const" version="opset1">
			<data element_type="i64" shape="" offset="4" size="8" />
			<output>
				<port id="0" precision="I64" />
			</output>
		</layer>
		<layer id="169" name="Gather_85316" type="Gather" version="opset8">
			<data batch_dims="0" />
			<input>
				<port id="0" precision="FP32">
					<dim>-1</dim>
					<dim>4</dim>
					<dim>-1</dim>
					<dim>128</dim>
				</port>
				<port id="1" precision="I32">
					<dim>-1</dim>
				</port>
				<port id="2" precision="I64" />
			</input>
			<output>
				<port id="3" precision="FP32">
					<dim>-1</dim>
					<dim>4</dim>
					<dim>-1</dim>
					<dim>128</dim>
				</port>
			</output>
		</layer>
		<layer id="170" name="self.model.layers.0.self_attn.v_proj.weight" type="Const" version="opset1">
			<data element_type="u8" shape="512, 3584" offset="560183280" size="1835008" />
			<output>
				<port id="0" precision="U8">
					<dim>512</dim>
					<dim>3584</dim>
				</port>
			</output>
		</layer>
		<layer id="171" name="Convert_841048" type="Convert" version="opset1">
			<data destination_type="f16" />
			<input>
				<port id="0" precision="U8">
					<dim>512</dim>
					<dim>3584</dim>
				</port>
			</input>
			<output>
				<port id="1" precision="FP16">
					<dim>512</dim>
					<dim>3584</dim>
				</port>
			</output>
		</layer>
		<layer id="172" name="self.model.layers.0.self_attn.v_proj.weight/zero_point" type="Const" version="opset1">
			<data element_type="u8" shape="512, 1" offset="562018288" size="512" />
			<output>
				<port id="0" precision="U8">
					<dim>512</dim>
					<dim>1</dim>
				</port>
			</output>
		</layer>
		<layer id="173" name="Convert_841051" type="Convert" version="opset1">
			<data destination_type="f16" />
			<input>
				<port id="0" precision="U8">
					<dim>512</dim>
					<dim>1</dim>
				</port>
			</input>
			<output>
				<port id="1" precision="FP16">
					<dim>512</dim>
					<dim>1</dim>
				</port>
			</output>
		</layer>
		<layer id="174" name="self.model.layers.0.self_attn.v_proj.weight/zero_point/subtract" type="Subtract" version="opset1">
			<data auto_broadcast="numpy" />
			<input>
				<port id="0" precision="FP16">
					<dim>512</dim>
					<dim>3584</dim>
				</port>
				<port id="1" precision="FP16">
					<dim>512</dim>
					<dim>1</dim>
				</port>
			</input>
			<output>
				<port id="2" precision="FP16">
					<dim>512</dim>
					<dim>3584</dim>
				</port>
			</output>
		</layer>
		<layer id="175" name="self.model.layers.0.self_attn.v_proj.weight/scale" type="Const" version="opset1">
			<data element_type="f16" shape="512, 1" offset="562018800" size="1024" />
			<output>
				<port id="0" precision="FP16">
					<dim>512</dim>
					<dim>1</dim>
				</port>
			</output>
		</layer>
		<layer id="176" name="self.model.layers.0.self_attn.v_proj.weight/fq_weights_1" type="Multiply" version="opset1">
			<data auto_broadcast="numpy" />
			<input>
				<port id="0" precision="FP16">
					<dim>512</dim>
					<dim>3584</dim>
				</port>
				<port id="1" precision="FP16">
					<dim>512</dim>
					<dim>1</dim>
				</port>
			</input>
			<output>
				<port id="2" precision="FP16">
					<dim>512</dim>
					<dim>3584</dim>
				</port>
			</output>
		</layer>
		<layer id="177" name="__module.model.layers.0.self_attn.v_proj/ov_ext::linear/Convert" type="Convert" version="opset1">
			<data destination_type="f32" />
			<rt_info>
				<attribute name="decompression" version="0" />
			</rt_info>
			<input>
				<port id="0" precision="FP16">
					<dim>512</dim>
					<dim>3584</dim>
				</port>
			</input>
			<output>
				<port id="1" precision="FP32">
					<dim>512</dim>
					<dim>3584</dim>
				</port>
			</output>
		</layer>
		<layer id="178" name="__module.model.layers.0.self_attn.v_proj/ov_ext::linear/MatMul" type="MatMul" version="opset1">
			<data transpose_a="false" transpose_b="true" />
			<input>
				<port id="0" precision="FP32">
					<dim>-1</dim>
					<dim>-1</dim>
					<dim>3584</dim>
				</port>
				<port id="1" precision="FP32">
					<dim>512</dim>
					<dim>3584</dim>
				</port>
			</input>
			<output>
				<port id="2" precision="FP32">
					<dim>-1</dim>
					<dim>-1</dim>
					<dim>512</dim>
				</port>
			</output>
		</layer>
		<layer id="179" name="self.model.layers.0.self_attn.v_proj.bias" type="Const" version="opset1">
			<data element_type="bf16" shape="512" offset="562019824" size="1024" />
			<output>
				<port id="0" precision="BF16" names="self.model.layers.0.self_attn.v_proj.bias">
					<dim>512</dim>
				</port>
			</output>
		</layer>
		<layer id="180" name="__module.model.layers.0.self_attn.v_proj/ov_ext::linear/Convert_1" type="Convert" version="opset1">
			<data destination_type="f32" />
			<rt_info>
				<attribute name="decompression" version="0" />
			</rt_info>
			<input>
				<port id="0" precision="BF16">
					<dim>512</dim>
				</port>
			</input>
			<output>
				<port id="1" precision="FP32">
					<dim>512</dim>
				</port>
			</output>
		</layer>
		<layer id="181" name="__module.model.layers.0.self_attn.v_proj/ov_ext::linear/Add" type="Add" version="opset1">
			<data auto_broadcast="numpy" />
			<input>
				<port id="0" precision="FP32">
					<dim>-1</dim>
					<dim>-1</dim>
					<dim>512</dim>
				</port>
				<port id="1" precision="FP32">
					<dim>512</dim>
				</port>
			</input>
			<output>
				<port id="2" precision="FP32" names="394">
					<dim>-1</dim>
					<dim>-1</dim>
					<dim>512</dim>
				</port>
			</output>
		</layer>
		<layer id="182" name="Constant_82900" type="Const" version="opset1">
			<data element_type="i64" shape="4" offset="560183184" size="32" />
			<output>
				<port id="0" precision="I64">
					<dim>4</dim>
				</port>
			</output>
		</layer>
		<layer id="183" name="__module.model.layers.0.self_attn/aten::view/Reshape_2" type="Reshape" version="opset1">
			<data special_zero="true" />
			<input>
				<port id="0" precision="FP32">
					<dim>-1</dim>
					<dim>-1</dim>
					<dim>512</dim>
				</port>
				<port id="1" precision="I64">
					<dim>4</dim>
				</port>
			</input>
			<output>
				<port id="2" precision="FP32" names="396">
					<dim>-1</dim>
					<dim>-1</dim>
					<dim>4</dim>
					<dim>128</dim>
				</port>
			</output>
		</layer>
		<layer id="184" name="__module.model.layers.0.self_attn/aten::transpose/Constant_2" type="Const" version="opset1">
			<data element_type="i32" shape="4" offset="558345296" size="16" />
			<output>
				<port id="0" precision="I32">
					<dim>4</dim>
				</port>
			</output>
		</layer>
		<layer id="185" name="__module.model.layers.0.self_attn/aten::transpose/Transpose_2" type="Transpose" version="opset1">
			<input>
				<port id="0" precision="FP32">
					<dim>-1</dim>
					<dim>-1</dim>
					<dim>4</dim>
					<dim>128</dim>
				</port>
				<port id="1" precision="I32">
					<dim>4</dim>
				</port>
			</input>
			<output>
				<port id="2" precision="FP32" names="397,value_states.1">
					<dim>-1</dim>
					<dim>4</dim>
					<dim>-1</dim>
					<dim>128</dim>
				</port>
			</output>
		</layer>
		<layer id="186" name="__module.model.layers.0.self_attn/aten::cat/Concat_3" type="Concat" version="opset1">
			<data axis="-2" />
			<input>
				<port id="0" precision="FP32">
					<dim>-1</dim>
					<dim>4</dim>
					<dim>-1</dim>
					<dim>128</dim>
				</port>
				<port id="1" precision="FP32">
					<dim>-1</dim>
					<dim>4</dim>
					<dim>-1</dim>
					<dim>128</dim>
				</port>
			</input>
			<output>
				<port id="2" precision="FP32" names="457,458,hidden_states.13">
					<dim>-1</dim>
					<dim>4</dim>
					<dim>-1</dim>
					<dim>128</dim>
				</port>
			</output>
		</layer>
		<layer id="187" name="__module.model.layers.0.self_attn/aten::unsqueeze/Unsqueeze_3" type="Unsqueeze" version="opset1">
			<input>
				<port id="0" precision="FP32">
					<dim>-1</dim>
					<dim>4</dim>
					<dim>-1</dim>
					<dim>128</dim>
				</port>
				<port id="1" precision="I64" />
			</input>
			<output>
				<port id="2" precision="FP32" names="459,460,461">
					<dim>-1</dim>
					<dim>4</dim>
					<dim>1</dim>
					<dim>-1</dim>
					<dim>128</dim>
				</port>
			</output>
		</layer>
		<layer id="188" name="__module.model.layers.0.self_attn/aten::expand/Broadcast_1" type="Broadcast" version="opset3">
			<data mode="bidirectional" />
			<input>
				<port id="0" precision="FP32">
					<dim>-1</dim>
					<dim>4</dim>
					<dim>1</dim>
					<dim>-1</dim>
					<dim>128</dim>
				</port>
				<port id="1" precision="I64">
					<dim>5</dim>
				</port>
			</input>
			<output>
				<port id="2" precision="FP32" names="463,hidden_states.15">
					<dim>-1</dim>
					<dim>4</dim>
					<dim>7</dim>
					<dim>-1</dim>
					<dim>128</dim>
				</port>
			</output>
		</layer>
		<layer id="189" name="Constant_82901" type="Const" version="opset1">
			<data element_type="i64" shape="4" offset="560183248" size="32" />
			<output>
				<port id="0" precision="I64">
					<dim>4</dim>
				</port>
			</output>
		</layer>
		<layer id="190" name="__module.model.layers.0.self_attn/aten::reshape/Reshape_1" type="Reshape" version="opset1">
			<data special_zero="true" />
			<input>
				<port id="0" precision="FP32">
					<dim>-1</dim>
					<dim>4</dim>
					<dim>7</dim>
					<dim>-1</dim>
					<dim>128</dim>
				</port>
				<port id="1" precision="I64">
					<dim>4</dim>
				</port>
			</input>
			<output>
				<port id="2" precision="FP32" names="467,value.1">
					<dim>-1</dim>
					<dim>28</dim>
					<dim>-1</dim>
					<dim>128</dim>
				</port>
			</output>
		</layer>
		<layer id="191" name="__module.model/aten::new_ones/Broadcast" type="Const" version="opset1">
			<data element_type="boolean" shape="" offset="562020848" size="1" />
			<output>
				<port id="0" precision="BOOL" names="314,result.1" />
			</output>
		</layer>
		<layer id="192" name="__module.model/aten::arange/Constant" type="Const" version="opset1">
			<data element_type="i32" shape="" offset="0" size="4" />
			<output>
				<port id="0" precision="I32" />
			</output>
		</layer>
		<layer id="193" name="__module.model/aten::size/Constant_3" type="Const" version="opset1">
			<data element_type="i32" shape="" offset="0" size="4" />
			<output>
				<port id="0" precision="I32" />
			</output>
		</layer>
		<layer id="194" name="__module.model/aten::size/Gather_3" type="Squeeze" version="opset1">
			<input>
				<port id="0" precision="I64">
					<dim>1</dim>
				</port>
				<port id="1" precision="I32" />
			</input>
			<output>
				<port id="2" precision="I64" names="289,297" />
			</output>
		</layer>
		<layer id="195" name="__module.model/aten::add/Add_1" type="Add" version="opset1">
			<data auto_broadcast="numpy" />
			<input>
				<port id="0" precision="I64" />
				<port id="1" precision="I64" />
			</input>
			<output>
				<port id="2" precision="I64" names="293,294,kv_length" />
			</output>
		</layer>
		<layer id="196" name="__module.model/aten::arange/Constant_2" type="Const" version="opset1">
			<data element_type="i32" shape="" offset="562020849" size="4" />
			<output>
				<port id="0" precision="I32" />
			</output>
		</layer>
		<layer id="197" name="__module.model/aten::arange/Range_1" type="Range" version="opset4">
			<data output_type="i64" />
			<input>
				<port id="0" precision="I32" />
				<port id="1" precision="I64" />
				<port id="2" precision="I32" />
			</input>
			<output>
				<port id="3" precision="I64" names="307">
					<dim>-1</dim>
				</port>
			</output>
		</layer>
		<layer id="198" name="213" type="Const" version="opset1">
			<data element_type="i64" shape="" offset="4" size="8" />
			<output>
				<port id="0" precision="I64" names="213" />
			</output>
		</layer>
		<layer id="199" name="__module.model/aten::unsqueeze/Unsqueeze" type="Unsqueeze" version="opset1">
			<input>
				<port id="0" precision="I64">
					<dim>-1</dim>
				</port>
				<port id="1" precision="I64" />
			</input>
			<output>
				<port id="2" precision="I64" names="308">
					<dim>1</dim>
					<dim>-1</dim>
				</port>
			</output>
		</layer>
		<layer id="200" name="__module.model/aten::unsqueeze/Unsqueeze_1" type="Unsqueeze" version="opset1">
			<input>
				<port id="0" precision="I64">
					<dim>1</dim>
					<dim>-1</dim>
				</port>
				<port id="1" precision="I64" />
			</input>
			<output>
				<port id="2" precision="I64" names="309">
					<dim>1</dim>
					<dim>1</dim>
					<dim>-1</dim>
				</port>
			</output>
		</layer>
		<layer id="201" name="__module.model/aten::unsqueeze/Unsqueeze_2" type="Unsqueeze" version="opset1">
			<input>
				<port id="0" precision="I64">
					<dim>1</dim>
					<dim>1</dim>
					<dim>-1</dim>
				</port>
				<port id="1" precision="I64" />
			</input>
			<output>
				<port id="2" precision="I64" names="310,311,312,kv_idx">
					<dim>1</dim>
					<dim>1</dim>
					<dim>1</dim>
					<dim>-1</dim>
				</port>
			</output>
		</layer>
		<layer id="202" name="__module.model/aten::add/Add" type="Add" version="opset1">
			<data auto_broadcast="numpy" />
			<input>
				<port id="0" precision="I64" />
				<port id="1" precision="I64" />
			</input>
			<output>
				<port id="2" precision="I64" names="285" />
			</output>
		</layer>
		<layer id="203" name="__module.model/aten::arange/Constant_1" type="Const" version="opset1">
			<data element_type="i32" shape="" offset="562020849" size="4" />
			<output>
				<port id="0" precision="I32" />
			</output>
		</layer>
		<layer id="204" name="__module.model/aten::arange/Range" type="Range" version="opset4">
			<data output_type="i64" />
			<input>
				<port id="0" precision="I64" />
				<port id="1" precision="I64" />
				<port id="2" precision="I32" />
			</input>
			<output>
				<port id="3" precision="I64" names="287,cache_position">
					<dim>-1</dim>
				</port>
			</output>
		</layer>
		<layer id="205" name="__module.model/aten::unsqueeze/Unsqueeze_3" type="Unsqueeze" version="opset1">
			<input>
				<port id="0" precision="I64">
					<dim>-1</dim>
				</port>
				<port id="1" precision="I64" />
			</input>
			<output>
				<port id="2" precision="I64" names="298">
					<dim>1</dim>
					<dim>-1</dim>
				</port>
			</output>
		</layer>
		<layer id="206" name="__module.model/aten::unsqueeze/Unsqueeze_4" type="Unsqueeze" version="opset1">
			<input>
				<port id="0" precision="I64">
					<dim>1</dim>
					<dim>-1</dim>
				</port>
				<port id="1" precision="I64" />
			</input>
			<output>
				<port id="2" precision="I64" names="299,300">
					<dim>1</dim>
					<dim>1</dim>
					<dim>-1</dim>
				</port>
			</output>
		</layer>
		<layer id="207" name="211" type="Const" version="opset1">
			<data element_type="i64" shape="" offset="558345604" size="8" />
			<output>
				<port id="0" precision="I64" names="211" />
			</output>
		</layer>
		<layer id="208" name="__module.model/aten::unsqueeze/Unsqueeze_5" type="Unsqueeze" version="opset1">
			<input>
				<port id="0" precision="I64">
					<dim>1</dim>
					<dim>1</dim>
					<dim>-1</dim>
				</port>
				<port id="1" precision="I64" />
			</input>
			<output>
				<port id="2" precision="I64" names="301,q_idx">
					<dim>1</dim>
					<dim>1</dim>
					<dim>-1</dim>
					<dim>1</dim>
				</port>
			</output>
		</layer>
		<layer id="209" name="__module.model/aten::le/LessEqual" type="LessEqual" version="opset1">
			<data auto_broadcast="numpy" />
			<input>
				<port id="0" precision="I64">
					<dim>1</dim>
					<dim>1</dim>
					<dim>1</dim>
					<dim>-1</dim>
				</port>
				<port id="1" precision="I64">
					<dim>1</dim>
					<dim>1</dim>
					<dim>-1</dim>
					<dim>1</dim>
				</port>
			</input>
			<output>
				<port id="2" precision="BOOL" names="315,316">
					<dim>1</dim>
					<dim>1</dim>
					<dim>-1</dim>
					<dim>-1</dim>
				</port>
			</output>
		</layer>
		<layer id="210" name="__module.model/aten::__and__/BitwiseAnd" type="BitwiseAnd" version="opset13">
			<data auto_broadcast="numpy" />
			<input>
				<port id="0" precision="BOOL" />
				<port id="1" precision="BOOL">
					<dim>1</dim>
					<dim>1</dim>
					<dim>-1</dim>
					<dim>-1</dim>
				</port>
			</input>
			<output>
				<port id="2" precision="BOOL" names="317,result">
					<dim>1</dim>
					<dim>1</dim>
					<dim>-1</dim>
					<dim>-1</dim>
				</port>
			</output>
		</layer>
		<layer id="211" name="__module.model/aten::to/Convert_1" type="Convert" version="opset1">
			<data destination_type="boolean" />
			<input>
				<port id="0" precision="I64">
					<dim>-1</dim>
					<dim>-1</dim>
				</port>
			</input>
			<output>
				<port id="1" precision="BOOL" names="288,attention_mask.3">
					<dim>-1</dim>
					<dim>-1</dim>
				</port>
			</output>
		</layer>
		<layer id="212" name="__module.model/aten::index/ShapeOf_1" type="ShapeOf" version="opset3">
			<data output_type="i32" />
			<input>
				<port id="0" precision="BOOL">
					<dim>-1</dim>
					<dim>-1</dim>
				</port>
			</input>
			<output>
				<port id="1" precision="I32">
					<dim>2</dim>
				</port>
			</output>
		</layer>
		<layer id="213" name="Constant_32157" type="Const" version="opset1">
			<data element_type="i32" shape="" offset="0" size="4" />
			<output>
				<port id="0" precision="I32" />
			</output>
		</layer>
		<layer id="214" name="__module.model/aten::index/ReduceProd" type="ReduceProd" version="opset1">
			<data keep_dims="true" />
			<input>
				<port id="0" precision="I32">
					<dim>2</dim>
				</port>
				<port id="1" precision="I32" />
			</input>
			<output>
				<port id="2" precision="I32">
					<dim>1</dim>
				</port>
			</output>
		</layer>
		<layer id="215" name="Constant_32159" type="Const" version="opset1">
			<data element_type="i32" shape="1" offset="558345612" size="4" />
			<output>
				<port id="0" precision="I32">
					<dim>1</dim>
				</port>
			</output>
		</layer>
		<layer id="216" name="__module.model/aten::index/Concat" type="Concat" version="opset1">
			<data axis="0" />
			<input>
				<port id="0" precision="I32">
					<dim>1</dim>
				</port>
				<port id="1" precision="I32">
					<dim>1</dim>
				</port>
			</input>
			<output>
				<port id="2" precision="I32">
					<dim>2</dim>
				</port>
			</output>
		</layer>
		<layer id="217" name="__module.model/aten::index/Reshape" type="Reshape" version="opset1">
			<data special_zero="true" />
			<input>
				<port id="0" precision="BOOL">
					<dim>-1</dim>
					<dim>-1</dim>
				</port>
				<port id="1" precision="I32">
					<dim>2</dim>
				</port>
			</input>
			<output>
				<port id="2" precision="BOOL">
					<dim>-1</dim>
					<dim>-1</dim>
				</port>
			</output>
		</layer>
		<layer id="218" name="__module.model/aten::index/Convert" type="Convert" version="opset1">
			<data destination_type="i32" />
			<input>
				<port id="0" precision="I64">
					<dim>1</dim>
					<dim>1</dim>
					<dim>1</dim>
					<dim>-1</dim>
				</port>
			</input>
			<output>
				<port id="1" precision="I32">
					<dim>1</dim>
					<dim>1</dim>
					<dim>1</dim>
					<dim>-1</dim>
				</port>
			</output>
		</layer>
		<layer id="219" name="__module.model/aten::arange/Constant_3" type="Const" version="opset1">
			<data element_type="i32" shape="" offset="0" size="4" />
			<output>
				<port id="0" precision="I32" />
			</output>
		</layer>
		<layer id="220" name="Squeeze_76204" type="Squeeze" version="opset1">
			<input>
				<port id="0" precision="I64">
					<dim>1</dim>
				</port>
			</input>
			<output>
				<port id="1" precision="I64" names="296" />
			</output>
		</layer>
		<layer id="221" name="__module.model/aten::arange/Constant_4" type="Const" version="opset1">
			<data element_type="i32" shape="" offset="562020849" size="4" />
			<output>
				<port id="0" precision="I32" />
			</output>
		</layer>
		<layer id="222" name="__module.model/aten::arange/Range_2" type="Range" version="opset4">
			<data output_type="i64" />
			<input>
				<port id="0" precision="I32" />
				<port id="1" precision="I64" />
				<port id="2" precision="I32" />
			</input>
			<output>
				<port id="3" precision="I64" names="302,303">
					<dim>-1</dim>
				</port>
			</output>
		</layer>
		<layer id="223" name="__module.model/aten::unsqueeze/Unsqueeze_6" type="Unsqueeze" version="opset1">
			<input>
				<port id="0" precision="I64">
					<dim>-1</dim>
				</port>
				<port id="1" precision="I64" />
			</input>
			<output>
				<port id="2" precision="I64" names="304">
					<dim>-1</dim>
					<dim>1</dim>
				</port>
			</output>
		</layer>
		<layer id="224" name="__module.model/aten::unsqueeze/Unsqueeze_7" type="Unsqueeze" version="opset1">
			<input>
				<port id="0" precision="I64">
					<dim>-1</dim>
					<dim>1</dim>
				</port>
				<port id="1" precision="I64" />
			</input>
			<output>
				<port id="2" precision="I64" names="305">
					<dim>-1</dim>
					<dim>1</dim>
					<dim>1</dim>
				</port>
			</output>
		</layer>
		<layer id="225" name="__module.model/aten::unsqueeze/Unsqueeze_8" type="Unsqueeze" version="opset1">
			<input>
				<port id="0" precision="I64">
					<dim>-1</dim>
					<dim>1</dim>
					<dim>1</dim>
				</port>
				<port id="1" precision="I64" />
			</input>
			<output>
				<port id="2" precision="I64" names="306,batch_idx">
					<dim>-1</dim>
					<dim>1</dim>
					<dim>1</dim>
					<dim>1</dim>
				</port>
			</output>
		</layer>
		<layer id="226" name="__module.model/aten::index/Convert_3" type="Convert" version="opset1">
			<data destination_type="i32" />
			<input>
				<port id="0" precision="I64">
					<dim>-1</dim>
					<dim>1</dim>
					<dim>1</dim>
					<dim>1</dim>
				</port>
			</input>
			<output>
				<port id="1" precision="I32">
					<dim>-1</dim>
					<dim>1</dim>
					<dim>1</dim>
					<dim>1</dim>
				</port>
			</output>
		</layer>
		<layer id="227" name="__module.model/aten::index/Constant" type="Const" version="opset1">
			<data element_type="i32" shape="" offset="0" size="4" />
			<output>
				<port id="0" precision="I32" />
			</output>
		</layer>
		<layer id="228" name="__module.model/aten::index/Split" type="Split" version="opset1">
			<data num_splits="2" />
			<input>
				<port id="0" precision="I32">
					<dim>2</dim>
				</port>
				<port id="1" precision="I32" />
			</input>
			<output>
				<port id="2" precision="I32">
					<dim>1</dim>
				</port>
				<port id="3" precision="I32">
					<dim>1</dim>
				</port>
			</output>
		</layer>
		<layer id="229" name="__module.model/aten::index/Multiply" type="Multiply" version="opset1">
			<data auto_broadcast="numpy" />
			<input>
				<port id="0" precision="I32">
					<dim>-1</dim>
					<dim>1</dim>
					<dim>1</dim>
					<dim>1</dim>
				</port>
				<port id="1" precision="I32">
					<dim>1</dim>
				</port>
			</input>
			<output>
				<port id="2" precision="I32">
					<dim>-1</dim>
					<dim>1</dim>
					<dim>1</dim>
					<dim>1</dim>
				</port>
			</output>
		</layer>
		<layer id="230" name="__module.model/aten::index/Add" type="Add" version="opset1">
			<data auto_broadcast="numpy" />
			<input>
				<port id="0" precision="I32">
					<dim>1</dim>
					<dim>1</dim>
					<dim>1</dim>
					<dim>-1</dim>
				</port>
				<port id="1" precision="I32">
					<dim>-1</dim>
					<dim>1</dim>
					<dim>1</dim>
					<dim>1</dim>
				</port>
			</input>
			<output>
				<port id="2" precision="I32">
					<dim>-1</dim>
					<dim>1</dim>
					<dim>1</dim>
					<dim>-1</dim>
				</port>
			</output>
		</layer>
		<layer id="231" name="__module.model/aten::index/Gather" type="Gather" version="opset8">
			<data batch_dims="0" />
			<input>
				<port id="0" precision="BOOL">
					<dim>-1</dim>
					<dim>-1</dim>
				</port>
				<port id="1" precision="I32">
					<dim>-1</dim>
					<dim>1</dim>
					<dim>1</dim>
					<dim>-1</dim>
				</port>
				<port id="2" precision="I32" />
			</input>
			<output>
				<port id="3" precision="BOOL">
					<dim>-1</dim>
					<dim>1</dim>
					<dim>1</dim>
					<dim>-1</dim>
					<dim>-1</dim>
				</port>
			</output>
		</layer>
		<layer id="232" name="Constant_51353" type="Const" version="opset1">
			<data element_type="i64" shape="1" offset="545482276" size="8" />
			<output>
				<port id="0" precision="I64">
					<dim>1</dim>
				</port>
			</output>
		</layer>
		<layer id="233" name="__module.model/aten::index/Reshape_8" type="Reshape" version="opset1">
			<data special_zero="false" />
			<input>
				<port id="0" precision="BOOL">
					<dim>-1</dim>
					<dim>1</dim>
					<dim>1</dim>
					<dim>-1</dim>
					<dim>-1</dim>
				</port>
				<port id="1" precision="I64">
					<dim>1</dim>
				</port>
			</input>
			<output>
				<port id="2" precision="BOOL">
					<dim>-1</dim>
				</port>
			</output>
		</layer>
		<layer id="234" name="__module.model/aten::index/ShapeOf_5" type="ShapeOf" version="opset3">
			<data output_type="i32" />
			<input>
				<port id="0" precision="I32">
					<dim>-1</dim>
					<dim>1</dim>
					<dim>1</dim>
					<dim>-1</dim>
				</port>
			</input>
			<output>
				<port id="1" precision="I32">
					<dim>4</dim>
				</port>
			</output>
		</layer>
		<layer id="235" name="__module.model/aten::index/Reshape_12" type="Reshape" version="opset1">
			<data special_zero="false" />
			<input>
				<port id="0" precision="BOOL">
					<dim>-1</dim>
				</port>
				<port id="1" precision="I32">
					<dim>4</dim>
				</port>
			</input>
			<output>
				<port id="2" precision="BOOL" names="319,320">
					<dim>-1</dim>
					<dim>1</dim>
					<dim>1</dim>
					<dim>-1</dim>
				</port>
			</output>
		</layer>
		<layer id="236" name="__module.model/aten::__and__/BitwiseAnd_1" type="BitwiseAnd" version="opset13">
			<data auto_broadcast="numpy" />
			<input>
				<port id="0" precision="BOOL">
					<dim>1</dim>
					<dim>1</dim>
					<dim>-1</dim>
					<dim>-1</dim>
				</port>
				<port id="1" precision="BOOL">
					<dim>-1</dim>
					<dim>1</dim>
					<dim>1</dim>
					<dim>-1</dim>
				</port>
			</input>
			<output>
				<port id="2" precision="BOOL" names="321,causal_mask">
					<dim>-1</dim>
					<dim>1</dim>
					<dim>-1</dim>
					<dim>-1</dim>
				</port>
			</output>
		</layer>
		<layer id="237" name="Constant_64396" type="Const" version="opset1">
			<data element_type="i64" shape="1" offset="558345568" size="8" />
			<output>
				<port id="0" precision="I64">
					<dim>1</dim>
				</port>
			</output>
		</layer>
		<layer id="238" name="Constant_238" type="Const" version="opset1">
			<data element_type="i32" shape="" offset="0" size="4" />
			<output>
				<port id="0" precision="I32" />
			</output>
		</layer>
		<layer id="239" name="Unsqueeze_242" type="Unsqueeze" version="opset1">
			<input>
				<port id="0" precision="I64" />
				<port id="1" precision="I32" />
			</input>
			<output>
				<port id="2" precision="I64">
					<dim>1</dim>
				</port>
			</output>
		</layer>
		<layer id="240" name="__module.model/prim::ListConstruct/SequenceMark" type="Concat" version="opset1">
			<data axis="0" />
			<input>
				<port id="0" precision="I64">
					<dim>1</dim>
				</port>
				<port id="1" precision="I64">
					<dim>1</dim>
				</port>
				<port id="2" precision="I64">
					<dim>1</dim>
				</port>
				<port id="3" precision="I64">
					<dim>1</dim>
				</port>
			</input>
			<output>
				<port id="4" precision="I64">
					<dim>4</dim>
				</port>
			</output>
		</layer>
		<layer id="241" name="__module.model/aten::expand/Broadcast" type="Broadcast" version="opset3">
			<data mode="bidirectional" />
			<input>
				<port id="0" precision="BOOL">
					<dim>-1</dim>
					<dim>1</dim>
					<dim>-1</dim>
					<dim>-1</dim>
				</port>
				<port id="1" precision="I64">
					<dim>4</dim>
				</port>
			</input>
			<output>
				<port id="2" precision="BOOL" names="323,mask">
					<dim>-1</dim>
					<dim>1</dim>
					<dim>-1</dim>
					<dim>-1</dim>
				</port>
			</output>
		</layer>
		<layer id="242" name="__module.model/aten::to/Convert_3" type="Const" version="opset1">
			<data element_type="f32" shape="" offset="0" size="4" />
			<output>
				<port id="0" precision="FP32" names="324" />
			</output>
		</layer>
		<layer id="243" name="__module.model/aten::to/Convert_4" type="Const" version="opset1">
			<data element_type="f32" shape="" offset="562020853" size="4" />
			<output>
				<port id="0" precision="FP32" names="326" />
			</output>
		</layer>
		<layer id="244" name="__module.model/aten::where/Select" type="Select" version="opset1">
			<data auto_broadcast="numpy" />
			<input>
				<port id="0" precision="BOOL">
					<dim>-1</dim>
					<dim>1</dim>
					<dim>-1</dim>
					<dim>-1</dim>
				</port>
				<port id="1" precision="FP32" />
				<port id="2" precision="FP32" />
			</input>
			<output>
				<port id="3" precision="FP32" names="1101,1102,1103,1259,1260,1261,1417,1418,1419,1575,1576,1577,1733,1734,1735,1891,1892,1893,2049,2050,2051,2207,2208,2209,2365,2366,2367,2523,2524,2525,2681,2682,2683,2839,2840,2841,2997,2998,2999,3155,3156,3157,328,3313,3314,3315,3471,3472,3473,3629,3630,3631,3787,3788,3789,3945,3946,3947,4103,4104,4105,4261,4262,4263,4419,4420,4421,4577,4578,4579,469,470,471,4735,4736,4737,627,628,629,785,786,787,943,944,945,attention_mask.5">
					<dim>-1</dim>
					<dim>1</dim>
					<dim>-1</dim>
					<dim>-1</dim>
				</port>
			</output>
		</layer>
		<layer id="245" name="Constant_1354" type="Const" version="opset1">
			<data element_type="i64" shape="1" offset="4" size="8" />
			<output>
				<port id="0" precision="I64">
					<dim>1</dim>
				</port>
			</output>
		</layer>
		<layer id="246" name="Constant_1357" type="Const" version="opset1">
			<data element_type="i64" shape="1" offset="558345568" size="8" />
			<output>
				<port id="0" precision="I64">
					<dim>1</dim>
				</port>
			</output>
		</layer>
		<layer id="247" name="Constant_1352" type="Const" version="opset1">
			<data element_type="i64" shape="1" offset="558345604" size="8" />
			<output>
				<port id="0" precision="I64">
					<dim>1</dim>
				</port>
			</output>
		</layer>
		<layer id="248" name="__module.model.layers.0.self_attn/aten::slice/Slice_15" type="Slice" version="opset8">
			<input>
				<port id="0" precision="FP32">
					<dim>-1</dim>
					<dim>1</dim>
					<dim>-1</dim>
					<dim>-1</dim>
				</port>
				<port id="1" precision="I64">
					<dim>1</dim>
				</port>
				<port id="2" precision="I64">
					<dim>1</dim>
				</port>
				<port id="3" precision="I64">
					<dim>1</dim>
				</port>
				<port id="4" precision="I64">
					<dim>1</dim>
				</port>
			</input>
			<output>
				<port id="5" precision="FP32" names="1104,1262,1420,1578,1736,1894,2052,2210,2368,2526,2684,2842,3000,3158,3316,3474,3632,3790,3948,4106,4264,4422,4580,472,4738,630,788,946,attention_mask.11,attention_mask.13,attention_mask.15,attention_mask.17,attention_mask.19,attention_mask.21,attention_mask.23,attention_mask.25,attention_mask.27,attention_mask.29,attention_mask.31,attention_mask.33,attention_mask.35,attention_mask.37,attention_mask.39,attention_mask.41,attention_mask.43,attention_mask.45,attention_mask.47,attention_mask.49,attention_mask.51,attention_mask.53,attention_mask.55,attention_mask.57,attention_mask.59,attention_mask.7,attention_mask.9,attention_mask_1">
					<dim>-1</dim>
					<dim>1</dim>
					<dim>-1</dim>
					<dim>-1</dim>
				</port>
			</output>
		</layer>
		<layer id="249" name="__module.model.layers.0.self_attn/aten::scaled_dot_product_attention/ConvertLike" type="Const" version="opset1">
			<data element_type="f32" shape="" offset="562020857" size="4" />
			<output>
				<port id="0" precision="FP32" />
			</output>
		</layer>
		<layer id="250" name="__module.model.layers.0.self_attn/aten::scaled_dot_product_attention/ScaledDotProductAttention" type="ScaledDotProductAttention" version="opset13">
			<data causal="false" />
			<input>
				<port id="0" precision="FP32">
					<dim>-1</dim>
					<dim>28</dim>
					<dim>-1</dim>
					<dim>128</dim>
				</port>
				<port id="1" precision="FP32">
					<dim>-1</dim>
					<dim>28</dim>
					<dim>-1</dim>
					<dim>128</dim>
				</port>
				<port id="2" precision="FP32">
					<dim>-1</dim>
					<dim>28</dim>
					<dim>-1</dim>
					<dim>128</dim>
				</port>
				<port id="3" precision="FP32">
					<dim>-1</dim>
					<dim>1</dim>
					<dim>-1</dim>
					<dim>-1</dim>
				</port>
				<port id="4" precision="FP32" />
			</input>
			<output>
				<port id="5" precision="FP32" names="473,attn_output.1">
					<dim>-1</dim>
					<dim>28</dim>
					<dim>-1</dim>
					<dim>128</dim>
				</port>
			</output>
		</layer>
		<layer id="251" name="__module.model.layers.0.self_attn/aten::transpose/Constant_3" type="Const" version="opset1">
			<data element_type="i32" shape="4" offset="558345296" size="16" />
			<output>
				<port id="0" precision="I32">
					<dim>4</dim>
				</port>
			</output>
		</layer>
		<layer id="252" name="__module.model.layers.0.self_attn/aten::transpose/Transpose_3" type="Transpose" version="opset1">
			<input>
				<port id="0" precision="FP32">
					<dim>-1</dim>
					<dim>28</dim>
					<dim>-1</dim>
					<dim>128</dim>
				</port>
				<port id="1" precision="I32">
					<dim>4</dim>
				</port>
			</input>
			<output>
				<port id="2" precision="FP32" names="474">
					<dim>-1</dim>
					<dim>-1</dim>
					<dim>28</dim>
					<dim>128</dim>
				</port>
			</output>
		</layer>
		<layer id="253" name="Constant_82902" type="Const" version="opset1">
			<data element_type="i64" shape="3" offset="562020861" size="24" />
			<output>
				<port id="0" precision="I64">
					<dim>3</dim>
				</port>
			</output>
		</layer>
		<layer id="254" name="__module.model.layers.0.self_attn/aten::reshape/Reshape_2" type="Reshape" version="opset1">
			<data special_zero="true" />
			<input>
				<port id="0" precision="FP32">
					<dim>-1</dim>
					<dim>-1</dim>
					<dim>28</dim>
					<dim>128</dim>
				</port>
				<port id="1" precision="I64">
					<dim>3</dim>
				</port>
			</input>
			<output>
				<port id="2" precision="FP32" names="477">
					<dim>-1</dim>
					<dim>-1</dim>
					<dim>3584</dim>
				</port>
			</output>
		</layer>
		<layer id="255" name="self.model.layers.0.self_attn.o_proj.weight" type="Const" version="opset1">
			<data element_type="u8" shape="3584, 3584" offset="562020885" size="12845056" />
			<output>
				<port id="0" precision="U8">
					<dim>3584</dim>
					<dim>3584</dim>
				</port>
			</output>
		</layer>
		<layer id="256" name="Convert_553488" type="Convert" version="opset1">
			<data destination_type="f16" />
			<input>
				<port id="0" precision="U8">
					<dim>3584</dim>
					<dim>3584</dim>
				</port>
			</input>
			<output>
				<port id="1" precision="FP16">
					<dim>3584</dim>
					<dim>3584</dim>
				</port>
			</output>
		</layer>
		<layer id="257" name="self.model.layers.0.self_attn.o_proj.weight/zero_point" type="Const" version="opset1">
			<data element_type="u8" shape="3584, 1" offset="574865941" size="3584" />
			<output>
				<port id="0" precision="U8">
					<dim>3584</dim>
					<dim>1</dim>
				</port>
			</output>
		</layer>
		<layer id="258" name="Convert_553491" type="Convert" version="opset1">
			<data destination_type="f16" />
			<input>
				<port id="0" precision="U8">
					<dim>3584</dim>
					<dim>1</dim>
				</port>
			</input>
			<output>
				<port id="1" precision="FP16">
					<dim>3584</dim>
					<dim>1</dim>
				</port>
			</output>
		</layer>
		<layer id="259" name="self.model.layers.0.self_attn.o_proj.weight/zero_point/subtract" type="Subtract" version="opset1">
			<data auto_broadcast="numpy" />
			<input>
				<port id="0" precision="FP16">
					<dim>3584</dim>
					<dim>3584</dim>
				</port>
				<port id="1" precision="FP16">
					<dim>3584</dim>
					<dim>1</dim>
				</port>
			</input>
			<output>
				<port id="2" precision="FP16">
					<dim>3584</dim>
					<dim>3584</dim>
				</port>
			</output>
		</layer>
		<layer id="260" name="self.model.layers.0.self_attn.o_proj.weight/scale" type="Const" version="opset1">
			<data element_type="f16" shape="3584, 1" offset="574869525" size="7168" />
			<output>
				<port id="0" precision="FP16">
					<dim>3584</dim>
					<dim>1</dim>
				</port>
			</output>
		</layer>
		<layer id="261" name="self.model.layers.0.self_attn.o_proj.weight/fq_weights_1" type="Multiply" version="opset1">
			<data auto_broadcast="numpy" />
			<input>
				<port id="0" precision="FP16">
					<dim>3584</dim>
					<dim>3584</dim>
				</port>
				<port id="1" precision="FP16">
					<dim>3584</dim>
					<dim>1</dim>
				</port>
			</input>
			<output>
				<port id="2" precision="FP16">
					<dim>3584</dim>
					<dim>3584</dim>
				</port>
			</output>
		</layer>
		<layer id="262" name="__module.model.layers.0.self_attn.o_proj/ov_ext::linear/Convert" type="Convert" version="opset1">
			<data destination_type="f32" />
			<rt_info>
				<attribute name="decompression" version="0" />
			</rt_info>
			<input>
				<port id="0" precision="FP16">
					<dim>3584</dim>
					<dim>3584</dim>
				</port>
			</input>
			<output>
				<port id="1" precision="FP32">
					<dim>3584</dim>
					<dim>3584</dim>
				</port>
			</output>
		</layer>
		<layer id="263" name="__module.model.layers.0.self_attn.o_proj/ov_ext::linear/MatMul" type="MatMul" version="opset1">
			<data transpose_a="false" transpose_b="true" />
			<input>
				<port id="0" precision="FP32">
					<dim>-1</dim>
					<dim>-1</dim>
					<dim>3584</dim>
				</port>
				<port id="1" precision="FP32">
					<dim>3584</dim>
					<dim>3584</dim>
				</port>
			</input>
			<output>
				<port id="2" precision="FP32" names="480,hidden_states.17">
					<dim>-1</dim>
					<dim>-1</dim>
					<dim>3584</dim>
				</port>
			</output>
		</layer>
		<layer id="264" name="__module.model.layers.0/aten::add/Add" type="Add" version="opset1">
			<data auto_broadcast="numpy" />
			<input>
				<port id="0" precision="FP32">
					<dim>-1</dim>
					<dim>-1</dim>
					<dim>3584</dim>
				</port>
				<port id="1" precision="FP32">
					<dim>-1</dim>
					<dim>-1</dim>
					<dim>3584</dim>
				</port>
			</input>
			<output>
				<port id="2" precision="FP32" names="485,487,hidden_states.19,hidden_states.21">
					<dim>-1</dim>
					<dim>-1</dim>
					<dim>3584</dim>
				</port>
			</output>
		</layer>
		<layer id="265" name="Constant_74393" type="Const" version="opset1">
			<data element_type="f32" shape="1, 1, 3584" offset="574876693" size="14336" />
			<output>
				<port id="0" precision="FP32">
					<dim>1</dim>
					<dim>1</dim>
					<dim>3584</dim>
				</port>
			</output>
		</layer>
		<layer id="266" name="Constant_74392" type="Const" version="opset1">
			<data element_type="f32" shape="1, 1, 1" offset="545482268" size="4" />
			<output>
				<port id="0" precision="FP32">
					<dim>1</dim>
					<dim>1</dim>
					<dim>1</dim>
				</port>
			</output>
		</layer>
		<layer id="267" name="Constant_74390" type="Const" version="opset1">
			<data element_type="f32" shape="1, 1, 1" offset="545482272" size="4" />
			<output>
				<port id="0" precision="FP32">
					<dim>1</dim>
					<dim>1</dim>
					<dim>1</dim>
				</port>
			</output>
		</layer>
		<layer id="268" name="__module.model.layers.0.post_attention_layernorm/aten::pow/Power" type="Power" version="opset1">
			<data auto_broadcast="numpy" />
			<input>
				<port id="0" precision="FP32">
					<dim>-1</dim>
					<dim>-1</dim>
					<dim>3584</dim>
				</port>
				<port id="1" precision="FP32">
					<dim>1</dim>
					<dim>1</dim>
					<dim>1</dim>
				</port>
			</input>
			<output>
				<port id="2" precision="FP32" names="488">
					<dim>-1</dim>
					<dim>-1</dim>
					<dim>3584</dim>
				</port>
			</output>
		</layer>
		<layer id="269" name="Constant_1437" type="Const" version="opset1">
			<data element_type="i64" shape="1" offset="545482276" size="8" />
			<output>
				<port id="0" precision="I64">
					<dim>1</dim>
				</port>
			</output>
		</layer>
		<layer id="270" name="__module.model.layers.0.post_attention_layernorm/aten::mean/ReduceMean" type="ReduceMean" version="opset1">
			<data keep_dims="true" />
			<input>
				<port id="0" precision="FP32">
					<dim>-1</dim>
					<dim>-1</dim>
					<dim>3584</dim>
				</port>
				<port id="1" precision="I64">
					<dim>1</dim>
				</port>
			</input>
			<output>
				<port id="2" precision="FP32" names="490,variance.3">
					<dim>-1</dim>
					<dim>-1</dim>
					<dim>1</dim>
				</port>
			</output>
		</layer>
		<layer id="271" name="Constant_74391" type="Const" version="opset1">
			<data element_type="f32" shape="1, 1, 1" offset="545482284" size="4" />
			<output>
				<port id="0" precision="FP32">
					<dim>1</dim>
					<dim>1</dim>
					<dim>1</dim>
				</port>
			</output>
		</layer>
		<layer id="272" name="__module.model.layers.0.post_attention_layernorm/aten::add/Add" type="Add" version="opset1">
			<data auto_broadcast="numpy" />
			<input>
				<port id="0" precision="FP32">
					<dim>-1</dim>
					<dim>-1</dim>
					<dim>1</dim>
				</port>
				<port id="1" precision="FP32">
					<dim>1</dim>
					<dim>1</dim>
					<dim>1</dim>
				</port>
			</input>
			<output>
				<port id="2" precision="FP32" names="491">
					<dim>-1</dim>
					<dim>-1</dim>
					<dim>1</dim>
				</port>
			</output>
		</layer>
		<layer id="273" name="__module.model.layers.0.post_attention_layernorm/aten::rsqrt/Sqrt" type="Sqrt" version="opset1">
			<input>
				<port id="0" precision="FP32">
					<dim>-1</dim>
					<dim>-1</dim>
					<dim>1</dim>
				</port>
			</input>
			<output>
				<port id="1" precision="FP32">
					<dim>-1</dim>
					<dim>-1</dim>
					<dim>1</dim>
				</port>
			</output>
		</layer>
		<layer id="274" name="__module.model.layers.0.post_attention_layernorm/aten::rsqrt/Divide" type="Divide" version="opset1">
			<data auto_broadcast="numpy" m_pythondiv="true" />
			<input>
				<port id="0" precision="FP32">
					<dim>1</dim>
					<dim>1</dim>
					<dim>1</dim>
				</port>
				<port id="1" precision="FP32">
					<dim>-1</dim>
					<dim>-1</dim>
					<dim>1</dim>
				</port>
			</input>
			<output>
				<port id="2" precision="FP32" names="492">
					<dim>-1</dim>
					<dim>-1</dim>
					<dim>1</dim>
				</port>
			</output>
		</layer>
		<layer id="275" name="__module.model.layers.0.post_attention_layernorm/aten::mul/Multiply" type="Multiply" version="opset1">
			<data auto_broadcast="numpy" />
			<input>
				<port id="0" precision="FP32">
					<dim>-1</dim>
					<dim>-1</dim>
					<dim>3584</dim>
				</port>
				<port id="1" precision="FP32">
					<dim>-1</dim>
					<dim>-1</dim>
					<dim>1</dim>
				</port>
			</input>
			<output>
				<port id="2" precision="FP32" names="493,494,hidden_states.23,hidden_states.25">
					<dim>-1</dim>
					<dim>-1</dim>
					<dim>3584</dim>
				</port>
			</output>
		</layer>
		<layer id="276" name="__module.model.layers.0.post_attention_layernorm/aten::mul/Multiply_1" type="Multiply" version="opset1">
			<data auto_broadcast="numpy" />
			<input>
				<port id="0" precision="FP32">
					<dim>1</dim>
					<dim>1</dim>
					<dim>3584</dim>
				</port>
				<port id="1" precision="FP32">
					<dim>-1</dim>
					<dim>-1</dim>
					<dim>3584</dim>
				</port>
			</input>
			<output>
				<port id="2" precision="FP32" names="495">
					<dim>-1</dim>
					<dim>-1</dim>
					<dim>3584</dim>
				</port>
			</output>
		</layer>
		<layer id="277" name="self.model.layers.0.mlp.gate_proj.weight" type="Const" version="opset1">
			<data element_type="u8" shape="18944, 3584" offset="574891029" size="67895296" />
			<output>
				<port id="0" precision="U8">
					<dim>18944</dim>
					<dim>3584</dim>
				</port>
			</output>
		</layer>
		<layer id="278" name="Convert_122148" type="Convert" version="opset1">
			<data destination_type="f16" />
			<input>
				<port id="0" precision="U8">
					<dim>18944</dim>
					<dim>3584</dim>
				</port>
			</input>
			<output>
				<port id="1" precision="FP16">
					<dim>18944</dim>
					<dim>3584</dim>
				</port>
			</output>
		</layer>
		<layer id="279" name="self.model.layers.0.mlp.gate_proj.weight/zero_point" type="Const" version="opset1">
			<data element_type="u8" shape="18944, 1" offset="642786325" size="18944" />
			<output>
				<port id="0" precision="U8">
					<dim>18944</dim>
					<dim>1</dim>
				</port>
			</output>
		</layer>
		<layer id="280" name="Convert_122151" type="Convert" version="opset1">
			<data destination_type="f16" />
			<input>
				<port id="0" precision="U8">
					<dim>18944</dim>
					<dim>1</dim>
				</port>
			</input>
			<output>
				<port id="1" precision="FP16">
					<dim>18944</dim>
					<dim>1</dim>
				</port>
			</output>
		</layer>
		<layer id="281" name="self.model.layers.0.mlp.gate_proj.weight/zero_point/subtract" type="Subtract" version="opset1">
			<data auto_broadcast="numpy" />
			<input>
				<port id="0" precision="FP16">
					<dim>18944</dim>
					<dim>3584</dim>
				</port>
				<port id="1" precision="FP16">
					<dim>18944</dim>
					<dim>1</dim>
				</port>
			</input>
			<output>
				<port id="2" precision="FP16">
					<dim>18944</dim>
					<dim>3584</dim>
				</port>
			</output>
		</layer>
		<layer id="282" name="self.model.layers.0.mlp.gate_proj.weight/scale" type="Const" version="opset1">
			<data element_type="f16" shape="18944, 1" offset="642805269" size="37888" />
			<output>
				<port id="0" precision="FP16">
					<dim>18944</dim>
					<dim>1</dim>
				</port>
			</output>
		</layer>
		<layer id="283" name="self.model.layers.0.mlp.gate_proj.weight/fq_weights_1" type="Multiply" version="opset1">
			<data auto_broadcast="numpy" />
			<input>
				<port id="0" precision="FP16">
					<dim>18944</dim>
					<dim>3584</dim>
				</port>
				<port id="1" precision="FP16">
					<dim>18944</dim>
					<dim>1</dim>
				</port>
			</input>
			<output>
				<port id="2" precision="FP16">
					<dim>18944</dim>
					<dim>3584</dim>
				</port>
			</output>
		</layer>
		<layer id="284" name="__module.model.layers.0.mlp.gate_proj/ov_ext::linear/Convert" type="Convert" version="opset1">
			<data destination_type="f32" />
			<rt_info>
				<attribute name="decompression" version="0" />
			</rt_info>
			<input>
				<port id="0" precision="FP16">
					<dim>18944</dim>
					<dim>3584</dim>
				</port>
			</input>
			<output>
				<port id="1" precision="FP32">
					<dim>18944</dim>
					<dim>3584</dim>
				</port>
			</output>
		</layer>
		<layer id="285" name="__module.model.layers.0.mlp.gate_proj/ov_ext::linear/MatMul" type="MatMul" version="opset1">
			<data transpose_a="false" transpose_b="true" />
			<input>
				<port id="0" precision="FP32">
					<dim>-1</dim>
					<dim>-1</dim>
					<dim>3584</dim>
				</port>
				<port id="1" precision="FP32">
					<dim>18944</dim>
					<dim>3584</dim>
				</port>
			</input>
			<output>
				<port id="2" precision="FP32" names="503,input.1">
					<dim>-1</dim>
					<dim>-1</dim>
					<dim>18944</dim>
				</port>
			</output>
		</layer>
		<layer id="286" name="__module.model.layers.0.mlp.act_fn/aten::silu/Swish" type="Swish" version="opset4">
			<input>
				<port id="0" precision="FP32">
					<dim>-1</dim>
					<dim>-1</dim>
					<dim>18944</dim>
				</port>
			</input>
			<output>
				<port id="1" precision="FP32" names="504">
					<dim>-1</dim>
					<dim>-1</dim>
					<dim>18944</dim>
				</port>
			</output>
		</layer>
		<layer id="287" name="self.model.layers.0.mlp.up_proj.weight" type="Const" version="opset1">
			<data element_type="u8" shape="18944, 3584" offset="642843157" size="67895296" />
			<output>
				<port id="0" precision="U8">
					<dim>18944</dim>
					<dim>3584</dim>
				</port>
			</output>
		</layer>
		<layer id="288" name="Convert_117013" type="Convert" version="opset1">
			<data destination_type="f16" />
			<input>
				<port id="0" precision="U8">
					<dim>18944</dim>
					<dim>3584</dim>
				</port>
			</input>
			<output>
				<port id="1" precision="FP16">
					<dim>18944</dim>
					<dim>3584</dim>
				</port>
			</output>
		</layer>
		<layer id="289" name="self.model.layers.0.mlp.up_proj.weight/zero_point" type="Const" version="opset1">
			<data element_type="u8" shape="18944, 1" offset="710738453" size="18944" />
			<output>
				<port id="0" precision="U8">
					<dim>18944</dim>
					<dim>1</dim>
				</port>
			</output>
		</layer>
		<layer id="290" name="Convert_117016" type="Convert" version="opset1">
			<data destination_type="f16" />
			<input>
				<port id="0" precision="U8">
					<dim>18944</dim>
					<dim>1</dim>
				</port>
			</input>
			<output>
				<port id="1" precision="FP16">
					<dim>18944</dim>
					<dim>1</dim>
				</port>
			</output>
		</layer>
		<layer id="291" name="self.model.layers.0.mlp.up_proj.weight/zero_point/subtract" type="Subtract" version="opset1">
			<data auto_broadcast="numpy" />
			<input>
				<port id="0" precision="FP16">
					<dim>18944</dim>
					<dim>3584</dim>
				</port>
				<port id="1" precision="FP16">
					<dim>18944</dim>
					<dim>1</dim>
				</port>
			</input>
			<output>
				<port id="2" precision="FP16">
					<dim>18944</dim>
					<dim>3584</dim>
				</port>
			</output>
		</layer>
		<layer id="292" name="self.model.layers.0.mlp.up_proj.weight/scale" type="Const" version="opset1">
			<data element_type="f16" shape="18944, 1" offset="710757397" size="37888" />
			<output>
				<port id="0" precision="FP16">
					<dim>18944</dim>
					<dim>1</dim>
				</port>
			</output>
		</layer>
		<layer id="293" name="self.model.layers.0.mlp.up_proj.weight/fq_weights_1" type="Multiply" version="opset1">
			<data auto_broadcast="numpy" />
			<input>
				<port id="0" precision="FP16">
					<dim>18944</dim>
					<dim>3584</dim>
				</port>
				<port id="1" precision="FP16">
					<dim>18944</dim>
					<dim>1</dim>
				</port>
			</input>
			<output>
				<port id="2" precision="FP16">
					<dim>18944</dim>
					<dim>3584</dim>
				</port>
			</output>
		</layer>
		<layer id="294" name="__module.model.layers.0.mlp.up_proj/ov_ext::linear/Convert" type="Convert" version="opset1">
			<data destination_type="f32" />
			<rt_info>
				<attribute name="decompression" version="0" />
			</rt_info>
			<input>
				<port id="0" precision="FP16">
					<dim>18944</dim>
					<dim>3584</dim>
				</port>
			</input>
			<output>
				<port id="1" precision="FP32">
					<dim>18944</dim>
					<dim>3584</dim>
				</port>
			</output>
		</layer>
		<layer id="295" name="__module.model.layers.0.mlp.up_proj/ov_ext::linear/MatMul" type="MatMul" version="opset1">
			<data transpose_a="false" transpose_b="true" />
			<input>
				<port id="0" precision="FP32">
					<dim>-1</dim>
					<dim>-1</dim>
					<dim>3584</dim>
				</port>
				<port id="1" precision="FP32">
					<dim>18944</dim>
					<dim>3584</dim>
				</port>
			</input>
			<output>
				<port id="2" precision="FP32" names="506">
					<dim>-1</dim>
					<dim>-1</dim>
					<dim>18944</dim>
				</port>
			</output>
		</layer>
		<layer id="296" name="__module.model.layers.0.mlp/aten::mul/Multiply" type="Multiply" version="opset1">
			<data auto_broadcast="numpy" />
			<input>
				<port id="0" precision="FP32">
					<dim>-1</dim>
					<dim>-1</dim>
					<dim>18944</dim>
				</port>
				<port id="1" precision="FP32">
					<dim>-1</dim>
					<dim>-1</dim>
					<dim>18944</dim>
				</port>
			</input>
			<output>
				<port id="2" precision="FP32" names="507">
					<dim>-1</dim>
					<dim>-1</dim>
					<dim>18944</dim>
				</port>
			</output>
		</layer>
		<layer id="297" name="self.model.layers.0.mlp.down_proj.weight" type="Const" version="opset1">
			<data element_type="u8" shape="3584, 18944" offset="710795285" size="67895296" />
			<output>
				<port id="0" precision="U8">
					<dim>3584</dim>
					<dim>18944</dim>
				</port>
			</output>
		</layer>
		<layer id="298" name="Convert_127283" type="Convert" version="opset1">
			<data destination_type="f16" />
			<input>
				<port id="0" precision="U8">
					<dim>3584</dim>
					<dim>18944</dim>
				</port>
			</input>
			<output>
				<port id="1" precision="FP16">
					<dim>3584</dim>
					<dim>18944</dim>
				</port>
			</output>
		</layer>
		<layer id="299" name="self.model.layers.0.mlp.down_proj.weight/zero_point" type="Const" version="opset1">
			<data element_type="u8" shape="3584, 1" offset="778690581" size="3584" />
			<output>
				<port id="0" precision="U8">
					<dim>3584</dim>
					<dim>1</dim>
				</port>
			</output>
		</layer>
		<layer id="300" name="Convert_127286" type="Convert" version="opset1">
			<data destination_type="f16" />
			<input>
				<port id="0" precision="U8">
					<dim>3584</dim>
					<dim>1</dim>
				</port>
			</input>
			<output>
				<port id="1" precision="FP16">
					<dim>3584</dim>
					<dim>1</dim>
				</port>
			</output>
		</layer>
		<layer id="301" name="self.model.layers.0.mlp.down_proj.weight/zero_point/subtract" type="Subtract" version="opset1">
			<data auto_broadcast="numpy" />
			<input>
				<port id="0" precision="FP16">
					<dim>3584</dim>
					<dim>18944</dim>
				</port>
				<port id="1" precision="FP16">
					<dim>3584</dim>
					<dim>1</dim>
				</port>
			</input>
			<output>
				<port id="2" precision="FP16">
					<dim>3584</dim>
					<dim>18944</dim>
				</port>
			</output>
		</layer>
		<layer id="302" name="self.model.layers.0.mlp.down_proj.weight/scale" type="Const" version="opset1">
			<data element_type="f16" shape="3584, 1" offset="778694165" size="7168" />
			<output>
				<port id="0" precision="FP16">
					<dim>3584</dim>
					<dim>1</dim>
				</port>
			</output>
		</layer>
		<layer id="303" name="self.model.layers.0.mlp.down_proj.weight/fq_weights_1" type="Multiply" version="opset1">
			<data auto_broadcast="numpy" />
			<input>
				<port id="0" precision="FP16">
					<dim>3584</dim>
					<dim>18944</dim>
				</port>
				<port id="1" precision="FP16">
					<dim>3584</dim>
					<dim>1</dim>
				</port>
			</input>
			<output>
				<port id="2" precision="FP16">
					<dim>3584</dim>
					<dim>18944</dim>
				</port>
			</output>
		</layer>
		<layer id="304" name="__module.model.layers.0.mlp.down_proj/ov_ext::linear/Convert" type="Convert" version="opset1">
			<data destination_type="f32" />
			<rt_info>
				<attribute name="decompression" version="0" />
			</rt_info>
			<input>
				<port id="0" precision="FP16">
					<dim>3584</dim>
					<dim>18944</dim>
				</port>
			</input>
			<output>
				<port id="1" precision="FP32">
					<dim>3584</dim>
					<dim>18944</dim>
				</port>
			</output>
		</layer>
		<layer id="305" name="__module.model.layers.0.mlp.down_proj/ov_ext::linear/MatMul" type="MatMul" version="opset1">
			<data transpose_a="false" transpose_b="true" />
			<input>
				<port id="0" precision="FP32">
					<dim>-1</dim>
					<dim>-1</dim>
					<dim>18944</dim>
				</port>
				<port id="1" precision="FP32">
					<dim>3584</dim>
					<dim>18944</dim>
				</port>
			</input>
			<output>
				<port id="2" precision="FP32" names="509,hidden_states.27">
					<dim>-1</dim>
					<dim>-1</dim>
					<dim>3584</dim>
				</port>
			</output>
		</layer>
		<layer id="306" name="__module.model.layers.0/aten::add/Add_1" type="Add" version="opset1">
			<data auto_broadcast="numpy" />
			<input>
				<port id="0" precision="FP32">
					<dim>-1</dim>
					<dim>-1</dim>
					<dim>3584</dim>
				</port>
				<port id="1" precision="FP32">
					<dim>-1</dim>
					<dim>-1</dim>
					<dim>3584</dim>
				</port>
			</input>
			<output>
				<port id="2" precision="FP32" names="510,520,hidden_states.29,hidden_states.31">
					<dim>-1</dim>
					<dim>-1</dim>
					<dim>3584</dim>
				</port>
			</output>
		</layer>
		<layer id="307" name="Constant_74397" type="Const" version="opset1">
			<data element_type="f32" shape="1, 1, 3584" offset="778701333" size="14336" />
			<output>
				<port id="0" precision="FP32">
					<dim>1</dim>
					<dim>1</dim>
					<dim>3584</dim>
				</port>
			</output>
		</layer>
		<layer id="308" name="Constant_74396" type="Const" version="opset1">
			<data element_type="f32" shape="1, 1, 1" offset="545482268" size="4" />
			<output>
				<port id="0" precision="FP32">
					<dim>1</dim>
					<dim>1</dim>
					<dim>1</dim>
				</port>
			</output>
		</layer>
		<layer id="309" name="Constant_74394" type="Const" version="opset1">
			<data element_type="f32" shape="1, 1, 1" offset="545482272" size="4" />
			<output>
				<port id="0" precision="FP32">
					<dim>1</dim>
					<dim>1</dim>
					<dim>1</dim>
				</port>
			</output>
		</layer>
		<layer id="310" name="__module.model.layers.1.input_layernorm/aten::pow/Power" type="Power" version="opset1">
			<data auto_broadcast="numpy" />
			<input>
				<port id="0" precision="FP32">
					<dim>-1</dim>
					<dim>-1</dim>
					<dim>3584</dim>
				</port>
				<port id="1" precision="FP32">
					<dim>1</dim>
					<dim>1</dim>
					<dim>1</dim>
				</port>
			</input>
			<output>
				<port id="2" precision="FP32" names="521">
					<dim>-1</dim>
					<dim>-1</dim>
					<dim>3584</dim>
				</port>
			</output>
		</layer>
		<layer id="311" name="Constant_1521" type="Const" version="opset1">
			<data element_type="i64" shape="1" offset="545482276" size="8" />
			<output>
				<port id="0" precision="I64">
					<dim>1</dim>
				</port>
			</output>
		</layer>
		<layer id="312" name="__module.model.layers.1.input_layernorm/aten::mean/ReduceMean" type="ReduceMean" version="opset1">
			<data keep_dims="true" />
			<input>
				<port id="0" precision="FP32">
					<dim>-1</dim>
					<dim>-1</dim>
					<dim>3584</dim>
				</port>
				<port id="1" precision="I64">
					<dim>1</dim>
				</port>
			</input>
			<output>
				<port id="2" precision="FP32" names="523,variance.5">
					<dim>-1</dim>
					<dim>-1</dim>
					<dim>1</dim>
				</port>
			</output>
		</layer>
		<layer id="313" name="Constant_74395" type="Const" version="opset1">
			<data element_type="f32" shape="1, 1, 1" offset="545482284" size="4" />
			<output>
				<port id="0" precision="FP32">
					<dim>1</dim>
					<dim>1</dim>
					<dim>1</dim>
				</port>
			</output>
		</layer>
		<layer id="314" name="__module.model.layers.1.input_layernorm/aten::add/Add" type="Add" version="opset1">
			<data auto_broadcast="numpy" />
			<input>
				<port id="0" precision="FP32">
					<dim>-1</dim>
					<dim>-1</dim>
					<dim>1</dim>
				</port>
				<port id="1" precision="FP32">
					<dim>1</dim>
					<dim>1</dim>
					<dim>1</dim>
				</port>
			</input>
			<output>
				<port id="2" precision="FP32" names="524">
					<dim>-1</dim>
					<dim>-1</dim>
					<dim>1</dim>
				</port>
			</output>
		</layer>
		<layer id="315" name="__module.model.layers.1.input_layernorm/aten::rsqrt/Sqrt" type="Sqrt" version="opset1">
			<input>
				<port id="0" precision="FP32">
					<dim>-1</dim>
					<dim>-1</dim>
					<dim>1</dim>
				</port>
			</input>
			<output>
				<port id="1" precision="FP32">
					<dim>-1</dim>
					<dim>-1</dim>
					<dim>1</dim>
				</port>
			</output>
		</layer>
		<layer id="316" name="__module.model.layers.1.input_layernorm/aten::rsqrt/Divide" type="Divide" version="opset1">
			<data auto_broadcast="numpy" m_pythondiv="true" />
			<input>
				<port id="0" precision="FP32">
					<dim>1</dim>
					<dim>1</dim>
					<dim>1</dim>
				</port>
				<port id="1" precision="FP32">
					<dim>-1</dim>
					<dim>-1</dim>
					<dim>1</dim>
				</port>
			</input>
			<output>
				<port id="2" precision="FP32" names="525">
					<dim>-1</dim>
					<dim>-1</dim>
					<dim>1</dim>
				</port>
			</output>
		</layer>
		<layer id="317" name="__module.model.layers.1.input_layernorm/aten::mul/Multiply" type="Multiply" version="opset1">
			<data auto_broadcast="numpy" />
			<input>
				<port id="0" precision="FP32">
					<dim>-1</dim>
					<dim>-1</dim>
					<dim>3584</dim>
				</port>
				<port id="1" precision="FP32">
					<dim>-1</dim>
					<dim>-1</dim>
					<dim>1</dim>
				</port>
			</input>
			<output>
				<port id="2" precision="FP32" names="526,527,hidden_states.33,hidden_states.35">
					<dim>-1</dim>
					<dim>-1</dim>
					<dim>3584</dim>
				</port>
			</output>
		</layer>
		<layer id="318" name="__module.model.layers.1.input_layernorm/aten::mul/Multiply_1" type="Multiply" version="opset1">
			<data auto_broadcast="numpy" />
			<input>
				<port id="0" precision="FP32">
					<dim>1</dim>
					<dim>1</dim>
					<dim>3584</dim>
				</port>
				<port id="1" precision="FP32">
					<dim>-1</dim>
					<dim>-1</dim>
					<dim>3584</dim>
				</port>
			</input>
			<output>
				<port id="2" precision="FP32" names="528,hidden_states.37">
					<dim>-1</dim>
					<dim>-1</dim>
					<dim>3584</dim>
				</port>
			</output>
		</layer>
		<layer id="319" name="self.model.layers.1.self_attn.q_proj.weight" type="Const" version="opset1">
			<data element_type="u8" shape="3584, 3584" offset="778715669" size="12845056" />
			<output>
				<port id="0" precision="U8">
					<dim>3584</dim>
					<dim>3584</dim>
				</port>
			</output>
		</layer>
		<layer id="320" name="Convert_558623" type="Convert" version="opset1">
			<data destination_type="f16" />
			<input>
				<port id="0" precision="U8">
					<dim>3584</dim>
					<dim>3584</dim>
				</port>
			</input>
			<output>
				<port id="1" precision="FP16">
					<dim>3584</dim>
					<dim>3584</dim>
				</port>
			</output>
		</layer>
		<layer id="321" name="self.model.layers.1.self_attn.q_proj.weight/zero_point" type="Const" version="opset1">
			<data element_type="u8" shape="3584, 1" offset="791560725" size="3584" />
			<output>
				<port id="0" precision="U8">
					<dim>3584</dim>
					<dim>1</dim>
				</port>
			</output>
		</layer>
		<layer id="322" name="Convert_558626" type="Convert" version="opset1">
			<data destination_type="f16" />
			<input>
				<port id="0" precision="U8">
					<dim>3584</dim>
					<dim>1</dim>
				</port>
			</input>
			<output>
				<port id="1" precision="FP16">
					<dim>3584</dim>
					<dim>1</dim>
				</port>
			</output>
		</layer>
		<layer id="323" name="self.model.layers.1.self_attn.q_proj.weight/zero_point/subtract" type="Subtract" version="opset1">
			<data auto_broadcast="numpy" />
			<input>
				<port id="0" precision="FP16">
					<dim>3584</dim>
					<dim>3584</dim>
				</port>
				<port id="1" precision="FP16">
					<dim>3584</dim>
					<dim>1</dim>
				</port>
			</input>
			<output>
				<port id="2" precision="FP16">
					<dim>3584</dim>
					<dim>3584</dim>
				</port>
			</output>
		</layer>
		<layer id="324" name="self.model.layers.1.self_attn.q_proj.weight/scale" type="Const" version="opset1">
			<data element_type="f16" shape="3584, 1" offset="791564309" size="7168" />
			<output>
				<port id="0" precision="FP16">
					<dim>3584</dim>
					<dim>1</dim>
				</port>
			</output>
		</layer>
		<layer id="325" name="self.model.layers.1.self_attn.q_proj.weight/fq_weights_1" type="Multiply" version="opset1">
			<data auto_broadcast="numpy" />
			<input>
				<port id="0" precision="FP16">
					<dim>3584</dim>
					<dim>3584</dim>
				</port>
				<port id="1" precision="FP16">
					<dim>3584</dim>
					<dim>1</dim>
				</port>
			</input>
			<output>
				<port id="2" precision="FP16">
					<dim>3584</dim>
					<dim>3584</dim>
				</port>
			</output>
		</layer>
		<layer id="326" name="__module.model.layers.1.self_attn.q_proj/ov_ext::linear/Convert" type="Convert" version="opset1">
			<data destination_type="f32" />
			<rt_info>
				<attribute name="decompression" version="0" />
			</rt_info>
			<input>
				<port id="0" precision="FP16">
					<dim>3584</dim>
					<dim>3584</dim>
				</port>
			</input>
			<output>
				<port id="1" precision="FP32">
					<dim>3584</dim>
					<dim>3584</dim>
				</port>
			</output>
		</layer>
		<layer id="327" name="__module.model.layers.1.self_attn.q_proj/ov_ext::linear/MatMul" type="MatMul" version="opset1">
			<data transpose_a="false" transpose_b="true" />
			<input>
				<port id="0" precision="FP32">
					<dim>-1</dim>
					<dim>-1</dim>
					<dim>3584</dim>
				</port>
				<port id="1" precision="FP32">
					<dim>3584</dim>
					<dim>3584</dim>
				</port>
			</input>
			<output>
				<port id="2" precision="FP32">
					<dim>-1</dim>
					<dim>-1</dim>
					<dim>3584</dim>
				</port>
			</output>
		</layer>
		<layer id="328" name="self.model.layers.1.self_attn.q_proj.bias" type="Const" version="opset1">
			<data element_type="bf16" shape="3584" offset="791571477" size="7168" />
			<output>
				<port id="0" precision="BF16" names="self.model.layers.1.self_attn.q_proj.bias">
					<dim>3584</dim>
				</port>
			</output>
		</layer>
		<layer id="329" name="__module.model.layers.1.self_attn.q_proj/ov_ext::linear/Convert_1" type="Convert" version="opset1">
			<data destination_type="f32" />
			<rt_info>
				<attribute name="decompression" version="0" />
			</rt_info>
			<input>
				<port id="0" precision="BF16">
					<dim>3584</dim>
				</port>
			</input>
			<output>
				<port id="1" precision="FP32">
					<dim>3584</dim>
				</port>
			</output>
		</layer>
		<layer id="330" name="__module.model.layers.1.self_attn.q_proj/ov_ext::linear/Add" type="Add" version="opset1">
			<data auto_broadcast="numpy" />
			<input>
				<port id="0" precision="FP32">
					<dim>-1</dim>
					<dim>-1</dim>
					<dim>3584</dim>
				</port>
				<port id="1" precision="FP32">
					<dim>3584</dim>
				</port>
			</input>
			<output>
				<port id="2" precision="FP32" names="540">
					<dim>-1</dim>
					<dim>-1</dim>
					<dim>3584</dim>
				</port>
			</output>
		</layer>
		<layer id="331" name="Constant_82903" type="Const" version="opset1">
			<data element_type="i64" shape="4" offset="558345264" size="32" />
			<output>
				<port id="0" precision="I64">
					<dim>4</dim>
				</port>
			</output>
		</layer>
		<layer id="332" name="__module.model.layers.1.self_attn/aten::view/Reshape" type="Reshape" version="opset1">
			<data special_zero="true" />
			<input>
				<port id="0" precision="FP32">
					<dim>-1</dim>
					<dim>-1</dim>
					<dim>3584</dim>
				</port>
				<port id="1" precision="I64">
					<dim>4</dim>
				</port>
			</input>
			<output>
				<port id="2" precision="FP32" names="542">
					<dim>-1</dim>
					<dim>-1</dim>
					<dim>28</dim>
					<dim>128</dim>
				</port>
			</output>
		</layer>
		<layer id="333" name="__module.model.layers.1.self_attn/aten::transpose/Constant" type="Const" version="opset1">
			<data element_type="i32" shape="4" offset="558345296" size="16" />
			<output>
				<port id="0" precision="I32">
					<dim>4</dim>
				</port>
			</output>
		</layer>
		<layer id="334" name="__module.model.layers.1.self_attn/aten::transpose/Transpose" type="Transpose" version="opset1">
			<input>
				<port id="0" precision="FP32">
					<dim>-1</dim>
					<dim>-1</dim>
					<dim>28</dim>
					<dim>128</dim>
				</port>
				<port id="1" precision="I32">
					<dim>4</dim>
				</port>
			</input>
			<output>
				<port id="2" precision="FP32" names="543,q.3">
					<dim>-1</dim>
					<dim>28</dim>
					<dim>-1</dim>
					<dim>128</dim>
				</port>
			</output>
		</layer>
		<layer id="335" name="__module.model.layers.1.self_attn/aten::mul/Multiply" type="Multiply" version="opset1">
			<data auto_broadcast="numpy" />
			<input>
				<port id="0" precision="FP32">
					<dim>-1</dim>
					<dim>28</dim>
					<dim>-1</dim>
					<dim>128</dim>
				</port>
				<port id="1" precision="FP32">
					<dim>-1</dim>
					<dim>1</dim>
					<dim>-1</dim>
					<dim>128</dim>
				</port>
			</input>
			<output>
				<port id="2" precision="FP32" names="558">
					<dim>-1</dim>
					<dim>28</dim>
					<dim>-1</dim>
					<dim>128</dim>
				</port>
			</output>
		</layer>
		<layer id="336" name="Constant_1831" type="Const" version="opset1">
			<data element_type="i64" shape="1" offset="558345588" size="8" />
			<output>
				<port id="0" precision="I64">
					<dim>1</dim>
				</port>
			</output>
		</layer>
		<layer id="337" name="Constant_1833" type="Const" version="opset1">
			<data element_type="i64" shape="1" offset="558345596" size="8" />
			<output>
				<port id="0" precision="I64">
					<dim>1</dim>
				</port>
			</output>
		</layer>
		<layer id="338" name="Constant_1835" type="Const" version="opset1">
			<data element_type="i64" shape="1" offset="558345568" size="8" />
			<output>
				<port id="0" precision="I64">
					<dim>1</dim>
				</port>
			</output>
		</layer>
		<layer id="339" name="Constant_1787" type="Const" version="opset1">
			<data element_type="i64" shape="1" offset="558345604" size="8" />
			<output>
				<port id="0" precision="I64">
					<dim>1</dim>
				</port>
			</output>
		</layer>
		<layer id="340" name="__module.model.layers.1.self_attn/aten::slice/Slice" type="Slice" version="opset8">
			<input>
				<port id="0" precision="FP32">
					<dim>-1</dim>
					<dim>28</dim>
					<dim>-1</dim>
					<dim>128</dim>
				</port>
				<port id="1" precision="I64">
					<dim>1</dim>
				</port>
				<port id="2" precision="I64">
					<dim>1</dim>
				</port>
				<port id="3" precision="I64">
					<dim>1</dim>
				</port>
				<port id="4" precision="I64">
					<dim>1</dim>
				</port>
			</input>
			<output>
				<port id="5" precision="FP32" names="568,x2.5">
					<dim>-1</dim>
					<dim>28</dim>
					<dim>-1</dim>
					<dim>64</dim>
				</port>
			</output>
		</layer>
		<layer id="341" name="__module.model.layers.1.self_attn/aten::neg/Constant" type="Const" version="opset1">
			<data element_type="i32" shape="" offset="558345612" size="4" />
			<output>
				<port id="0" precision="I32" />
			</output>
		</layer>
		<layer id="342" name="__module.model.layers.1.self_attn/aten::neg/ConvertLike" type="Convert" version="opset1">
			<data destination_type="f32" />
			<input>
				<port id="0" precision="I32" />
			</input>
			<output>
				<port id="1" precision="FP32" />
			</output>
		</layer>
		<layer id="343" name="__module.model.layers.1.self_attn/aten::neg/Multiply" type="Multiply" version="opset1">
			<data auto_broadcast="numpy" />
			<input>
				<port id="0" precision="FP32">
					<dim>-1</dim>
					<dim>28</dim>
					<dim>-1</dim>
					<dim>64</dim>
				</port>
				<port id="1" precision="FP32" />
			</input>
			<output>
				<port id="2" precision="FP32" names="569">
					<dim>-1</dim>
					<dim>28</dim>
					<dim>-1</dim>
					<dim>64</dim>
				</port>
			</output>
		</layer>
		<layer id="344" name="Constant_1728" type="Const" version="opset1">
			<data element_type="i64" shape="1" offset="4" size="8" />
			<output>
				<port id="0" precision="I64">
					<dim>1</dim>
				</port>
			</output>
		</layer>
		<layer id="345" name="Constant_1772" type="Const" version="opset1">
			<data element_type="i64" shape="1" offset="558345588" size="8" />
			<output>
				<port id="0" precision="I64">
					<dim>1</dim>
				</port>
			</output>
		</layer>
		<layer id="346" name="Constant_1774" type="Const" version="opset1">
			<data element_type="i64" shape="1" offset="558345568" size="8" />
			<output>
				<port id="0" precision="I64">
					<dim>1</dim>
				</port>
			</output>
		</layer>
		<layer id="347" name="Constant_1726" type="Const" version="opset1">
			<data element_type="i64" shape="1" offset="558345604" size="8" />
			<output>
				<port id="0" precision="I64">
					<dim>1</dim>
				</port>
			</output>
		</layer>
		<layer id="348" name="__module.model.layers.1.self_attn/aten::slice/Slice_1" type="Slice" version="opset8">
			<input>
				<port id="0" precision="FP32">
					<dim>-1</dim>
					<dim>28</dim>
					<dim>-1</dim>
					<dim>128</dim>
				</port>
				<port id="1" precision="I64">
					<dim>1</dim>
				</port>
				<port id="2" precision="I64">
					<dim>1</dim>
				</port>
				<port id="3" precision="I64">
					<dim>1</dim>
				</port>
				<port id="4" precision="I64">
					<dim>1</dim>
				</port>
			</input>
			<output>
				<port id="5" precision="FP32" names="563,x1.5">
					<dim>-1</dim>
					<dim>28</dim>
					<dim>-1</dim>
					<dim>64</dim>
				</port>
			</output>
		</layer>
		<layer id="349" name="__module.model.layers.1.self_attn/aten::cat/Concat" type="Concat" version="opset1">
			<data axis="-1" />
			<input>
				<port id="0" precision="FP32">
					<dim>-1</dim>
					<dim>28</dim>
					<dim>-1</dim>
					<dim>64</dim>
				</port>
				<port id="1" precision="FP32">
					<dim>-1</dim>
					<dim>28</dim>
					<dim>-1</dim>
					<dim>64</dim>
				</port>
			</input>
			<output>
				<port id="2" precision="FP32" names="571">
					<dim>-1</dim>
					<dim>28</dim>
					<dim>-1</dim>
					<dim>128</dim>
				</port>
			</output>
		</layer>
		<layer id="350" name="__module.model.layers.1.self_attn/aten::mul/Multiply_1" type="Multiply" version="opset1">
			<data auto_broadcast="numpy" />
			<input>
				<port id="0" precision="FP32">
					<dim>-1</dim>
					<dim>28</dim>
					<dim>-1</dim>
					<dim>128</dim>
				</port>
				<port id="1" precision="FP32">
					<dim>-1</dim>
					<dim>1</dim>
					<dim>-1</dim>
					<dim>128</dim>
				</port>
			</input>
			<output>
				<port id="2" precision="FP32" names="572">
					<dim>-1</dim>
					<dim>28</dim>
					<dim>-1</dim>
					<dim>128</dim>
				</port>
			</output>
		</layer>
		<layer id="351" name="__module.model.layers.1.self_attn/aten::add/Add" type="Add" version="opset1">
			<data auto_broadcast="numpy" />
			<input>
				<port id="0" precision="FP32">
					<dim>-1</dim>
					<dim>28</dim>
					<dim>-1</dim>
					<dim>128</dim>
				</port>
				<port id="1" precision="FP32">
					<dim>-1</dim>
					<dim>28</dim>
					<dim>-1</dim>
					<dim>128</dim>
				</port>
			</input>
			<output>
				<port id="2" precision="FP32" names="573,query.3">
					<dim>-1</dim>
					<dim>28</dim>
					<dim>-1</dim>
					<dim>128</dim>
				</port>
			</output>
		</layer>
		<layer id="352" name="Constant_86473" type="Const" version="opset1">
			<data element_type="f32" shape="" offset="0" size="4" />
			<output>
				<port id="0" precision="FP32" />
			</output>
		</layer>
		<layer id="353" name="Constant_86466" type="Const" version="opset1">
			<data element_type="i64" shape="1" offset="12" size="8" />
			<output>
				<port id="0" precision="I64">
					<dim>1</dim>
				</port>
			</output>
		</layer>
		<layer id="354" name="Constant_86468" type="Const" version="opset1">
			<data element_type="i64" shape="1" offset="4" size="8" />
			<output>
				<port id="0" precision="I64">
					<dim>1</dim>
				</port>
			</output>
		</layer>
		<layer id="355" name="Constant_86470" type="Const" version="opset1">
			<data element_type="i64" shape="1" offset="20" size="8" />
			<output>
				<port id="0" precision="I64">
					<dim>1</dim>
				</port>
			</output>
		</layer>
		<layer id="356" name="Concat_86471" type="Concat" version="opset1">
			<data axis="0" />
			<input>
				<port id="0" precision="I64">
					<dim>1</dim>
				</port>
				<port id="1" precision="I64">
					<dim>1</dim>
				</port>
				<port id="2" precision="I64">
					<dim>1</dim>
				</port>
				<port id="3" precision="I64">
					<dim>1</dim>
				</port>
			</input>
			<output>
				<port id="4" precision="I64">
					<dim>4</dim>
				</port>
			</output>
		</layer>
		<layer id="357" name="Broadcast_86474" type="Broadcast" version="opset3">
			<data mode="numpy" />
			<input>
				<port id="0" precision="FP32" />
				<port id="1" precision="I64">
					<dim>4</dim>
				</port>
			</input>
			<output>
				<port id="2" precision="FP32">
					<dim>-1</dim>
					<dim>4</dim>
					<dim>0</dim>
					<dim>128</dim>
				</port>
			</output>
		</layer>
		<layer id="358" name="ReadValue_85893" type="ReadValue" version="opset6">
			<data variable_id="past_key_values.1.keypresent.1.key" variable_type="f32" variable_shape="?,4,?,128" />
			<input>
				<port id="0" precision="FP32">
					<dim>-1</dim>
					<dim>4</dim>
					<dim>0</dim>
					<dim>128</dim>
				</port>
			</input>
			<output>
				<port id="1" precision="FP32" names="past_key_values.1.key">
					<dim>-1</dim>
					<dim>4</dim>
					<dim>-1</dim>
					<dim>128</dim>
				</port>
			</output>
		</layer>
		<layer id="359" name="Constant_85318" type="Const" version="opset1">
			<data element_type="i64" shape="" offset="4" size="8" />
			<output>
				<port id="0" precision="I64" />
			</output>
		</layer>
		<layer id="360" name="Gather_85319" type="Gather" version="opset8">
			<data batch_dims="0" />
			<input>
				<port id="0" precision="FP32">
					<dim>-1</dim>
					<dim>4</dim>
					<dim>-1</dim>
					<dim>128</dim>
				</port>
				<port id="1" precision="I32">
					<dim>-1</dim>
				</port>
				<port id="2" precision="I64" />
			</input>
			<output>
				<port id="3" precision="FP32">
					<dim>-1</dim>
					<dim>4</dim>
					<dim>-1</dim>
					<dim>128</dim>
				</port>
			</output>
		</layer>
		<layer id="361" name="self.model.layers.1.self_attn.k_proj.weight" type="Const" version="opset1">
			<data element_type="u8" shape="512, 3584" offset="791578645" size="1835008" />
			<output>
				<port id="0" precision="U8">
					<dim>512</dim>
					<dim>3584</dim>
				</port>
			</output>
		</layer>
		<layer id="362" name="Convert_851318" type="Convert" version="opset1">
			<data destination_type="f16" />
			<input>
				<port id="0" precision="U8">
					<dim>512</dim>
					<dim>3584</dim>
				</port>
			</input>
			<output>
				<port id="1" precision="FP16">
					<dim>512</dim>
					<dim>3584</dim>
				</port>
			</output>
		</layer>
		<layer id="363" name="self.model.layers.1.self_attn.k_proj.weight/zero_point" type="Const" version="opset1">
			<data element_type="u8" shape="512, 1" offset="793413653" size="512" />
			<output>
				<port id="0" precision="U8">
					<dim>512</dim>
					<dim>1</dim>
				</port>
			</output>
		</layer>
		<layer id="364" name="Convert_851321" type="Convert" version="opset1">
			<data destination_type="f16" />
			<input>
				<port id="0" precision="U8">
					<dim>512</dim>
					<dim>1</dim>
				</port>
			</input>
			<output>
				<port id="1" precision="FP16">
					<dim>512</dim>
					<dim>1</dim>
				</port>
			</output>
		</layer>
		<layer id="365" name="self.model.layers.1.self_attn.k_proj.weight/zero_point/subtract" type="Subtract" version="opset1">
			<data auto_broadcast="numpy" />
			<input>
				<port id="0" precision="FP16">
					<dim>512</dim>
					<dim>3584</dim>
				</port>
				<port id="1" precision="FP16">
					<dim>512</dim>
					<dim>1</dim>
				</port>
			</input>
			<output>
				<port id="2" precision="FP16">
					<dim>512</dim>
					<dim>3584</dim>
				</port>
			</output>
		</layer>
		<layer id="366" name="self.model.layers.1.self_attn.k_proj.weight/scale" type="Const" version="opset1">
			<data element_type="f16" shape="512, 1" offset="793414165" size="1024" />
			<output>
				<port id="0" precision="FP16">
					<dim>512</dim>
					<dim>1</dim>
				</port>
			</output>
		</layer>
		<layer id="367" name="self.model.layers.1.self_attn.k_proj.weight/fq_weights_1" type="Multiply" version="opset1">
			<data auto_broadcast="numpy" />
			<input>
				<port id="0" precision="FP16">
					<dim>512</dim>
					<dim>3584</dim>
				</port>
				<port id="1" precision="FP16">
					<dim>512</dim>
					<dim>1</dim>
				</port>
			</input>
			<output>
				<port id="2" precision="FP16">
					<dim>512</dim>
					<dim>3584</dim>
				</port>
			</output>
		</layer>
		<layer id="368" name="__module.model.layers.1.self_attn.k_proj/ov_ext::linear/Convert" type="Convert" version="opset1">
			<data destination_type="f32" />
			<rt_info>
				<attribute name="decompression" version="0" />
			</rt_info>
			<input>
				<port id="0" precision="FP16">
					<dim>512</dim>
					<dim>3584</dim>
				</port>
			</input>
			<output>
				<port id="1" precision="FP32">
					<dim>512</dim>
					<dim>3584</dim>
				</port>
			</output>
		</layer>
		<layer id="369" name="__module.model.layers.1.self_attn.k_proj/ov_ext::linear/MatMul" type="MatMul" version="opset1">
			<data transpose_a="false" transpose_b="true" />
			<input>
				<port id="0" precision="FP32">
					<dim>-1</dim>
					<dim>-1</dim>
					<dim>3584</dim>
				</port>
				<port id="1" precision="FP32">
					<dim>512</dim>
					<dim>3584</dim>
				</port>
			</input>
			<output>
				<port id="2" precision="FP32">
					<dim>-1</dim>
					<dim>-1</dim>
					<dim>512</dim>
				</port>
			</output>
		</layer>
		<layer id="370" name="self.model.layers.1.self_attn.k_proj.bias" type="Const" version="opset1">
			<data element_type="bf16" shape="512" offset="793415189" size="1024" />
			<output>
				<port id="0" precision="BF16" names="self.model.layers.1.self_attn.k_proj.bias">
					<dim>512</dim>
				</port>
			</output>
		</layer>
		<layer id="371" name="__module.model.layers.1.self_attn.k_proj/ov_ext::linear/Convert_1" type="Convert" version="opset1">
			<data destination_type="f32" />
			<rt_info>
				<attribute name="decompression" version="0" />
			</rt_info>
			<input>
				<port id="0" precision="BF16">
					<dim>512</dim>
				</port>
			</input>
			<output>
				<port id="1" precision="FP32">
					<dim>512</dim>
				</port>
			</output>
		</layer>
		<layer id="372" name="__module.model.layers.1.self_attn.k_proj/ov_ext::linear/Add" type="Add" version="opset1">
			<data auto_broadcast="numpy" />
			<input>
				<port id="0" precision="FP32">
					<dim>-1</dim>
					<dim>-1</dim>
					<dim>512</dim>
				</port>
				<port id="1" precision="FP32">
					<dim>512</dim>
				</port>
			</input>
			<output>
				<port id="2" precision="FP32" names="546">
					<dim>-1</dim>
					<dim>-1</dim>
					<dim>512</dim>
				</port>
			</output>
		</layer>
		<layer id="373" name="Constant_82904" type="Const" version="opset1">
			<data element_type="i64" shape="4" offset="560183184" size="32" />
			<output>
				<port id="0" precision="I64">
					<dim>4</dim>
				</port>
			</output>
		</layer>
		<layer id="374" name="__module.model.layers.1.self_attn/aten::view/Reshape_1" type="Reshape" version="opset1">
			<data special_zero="true" />
			<input>
				<port id="0" precision="FP32">
					<dim>-1</dim>
					<dim>-1</dim>
					<dim>512</dim>
				</port>
				<port id="1" precision="I64">
					<dim>4</dim>
				</port>
			</input>
			<output>
				<port id="2" precision="FP32" names="548">
					<dim>-1</dim>
					<dim>-1</dim>
					<dim>4</dim>
					<dim>128</dim>
				</port>
			</output>
		</layer>
		<layer id="375" name="__module.model.layers.1.self_attn/aten::transpose/Constant_1" type="Const" version="opset1">
			<data element_type="i32" shape="4" offset="558345296" size="16" />
			<output>
				<port id="0" precision="I32">
					<dim>4</dim>
				</port>
			</output>
		</layer>
		<layer id="376" name="__module.model.layers.1.self_attn/aten::transpose/Transpose_1" type="Transpose" version="opset1">
			<input>
				<port id="0" precision="FP32">
					<dim>-1</dim>
					<dim>-1</dim>
					<dim>4</dim>
					<dim>128</dim>
				</port>
				<port id="1" precision="I32">
					<dim>4</dim>
				</port>
			</input>
			<output>
				<port id="2" precision="FP32" names="549,k.3">
					<dim>-1</dim>
					<dim>4</dim>
					<dim>-1</dim>
					<dim>128</dim>
				</port>
			</output>
		</layer>
		<layer id="377" name="__module.model.layers.1.self_attn/aten::mul/Multiply_2" type="Multiply" version="opset1">
			<data auto_broadcast="numpy" />
			<input>
				<port id="0" precision="FP32">
					<dim>-1</dim>
					<dim>4</dim>
					<dim>-1</dim>
					<dim>128</dim>
				</port>
				<port id="1" precision="FP32">
					<dim>-1</dim>
					<dim>1</dim>
					<dim>-1</dim>
					<dim>128</dim>
				</port>
			</input>
			<output>
				<port id="2" precision="FP32" names="574">
					<dim>-1</dim>
					<dim>4</dim>
					<dim>-1</dim>
					<dim>128</dim>
				</port>
			</output>
		</layer>
		<layer id="378" name="Constant_1973" type="Const" version="opset1">
			<data element_type="i64" shape="1" offset="558345588" size="8" />
			<output>
				<port id="0" precision="I64">
					<dim>1</dim>
				</port>
			</output>
		</layer>
		<layer id="379" name="Constant_1975" type="Const" version="opset1">
			<data element_type="i64" shape="1" offset="558345596" size="8" />
			<output>
				<port id="0" precision="I64">
					<dim>1</dim>
				</port>
			</output>
		</layer>
		<layer id="380" name="Constant_1977" type="Const" version="opset1">
			<data element_type="i64" shape="1" offset="558345568" size="8" />
			<output>
				<port id="0" precision="I64">
					<dim>1</dim>
				</port>
			</output>
		</layer>
		<layer id="381" name="Constant_1929" type="Const" version="opset1">
			<data element_type="i64" shape="1" offset="558345604" size="8" />
			<output>
				<port id="0" precision="I64">
					<dim>1</dim>
				</port>
			</output>
		</layer>
		<layer id="382" name="__module.model.layers.1.self_attn/aten::slice/Slice_2" type="Slice" version="opset8">
			<input>
				<port id="0" precision="FP32">
					<dim>-1</dim>
					<dim>4</dim>
					<dim>-1</dim>
					<dim>128</dim>
				</port>
				<port id="1" precision="I64">
					<dim>1</dim>
				</port>
				<port id="2" precision="I64">
					<dim>1</dim>
				</port>
				<port id="3" precision="I64">
					<dim>1</dim>
				</port>
				<port id="4" precision="I64">
					<dim>1</dim>
				</port>
			</input>
			<output>
				<port id="5" precision="FP32" names="584,x2.7">
					<dim>-1</dim>
					<dim>4</dim>
					<dim>-1</dim>
					<dim>64</dim>
				</port>
			</output>
		</layer>
		<layer id="383" name="__module.model.layers.1.self_attn/aten::neg/Constant_1" type="Const" version="opset1">
			<data element_type="i32" shape="" offset="558345612" size="4" />
			<output>
				<port id="0" precision="I32" />
			</output>
		</layer>
		<layer id="384" name="__module.model.layers.1.self_attn/aten::neg/ConvertLike_1" type="Convert" version="opset1">
			<data destination_type="f32" />
			<input>
				<port id="0" precision="I32" />
			</input>
			<output>
				<port id="1" precision="FP32" />
			</output>
		</layer>
		<layer id="385" name="__module.model.layers.1.self_attn/aten::neg/Multiply_1" type="Multiply" version="opset1">
			<data auto_broadcast="numpy" />
			<input>
				<port id="0" precision="FP32">
					<dim>-1</dim>
					<dim>4</dim>
					<dim>-1</dim>
					<dim>64</dim>
				</port>
				<port id="1" precision="FP32" />
			</input>
			<output>
				<port id="2" precision="FP32" names="585">
					<dim>-1</dim>
					<dim>4</dim>
					<dim>-1</dim>
					<dim>64</dim>
				</port>
			</output>
		</layer>
		<layer id="386" name="Constant_1870" type="Const" version="opset1">
			<data element_type="i64" shape="1" offset="4" size="8" />
			<output>
				<port id="0" precision="I64">
					<dim>1</dim>
				</port>
			</output>
		</layer>
		<layer id="387" name="Constant_1914" type="Const" version="opset1">
			<data element_type="i64" shape="1" offset="558345588" size="8" />
			<output>
				<port id="0" precision="I64">
					<dim>1</dim>
				</port>
			</output>
		</layer>
		<layer id="388" name="Constant_1916" type="Const" version="opset1">
			<data element_type="i64" shape="1" offset="558345568" size="8" />
			<output>
				<port id="0" precision="I64">
					<dim>1</dim>
				</port>
			</output>
		</layer>
		<layer id="389" name="Constant_1868" type="Const" version="opset1">
			<data element_type="i64" shape="1" offset="558345604" size="8" />
			<output>
				<port id="0" precision="I64">
					<dim>1</dim>
				</port>
			</output>
		</layer>
		<layer id="390" name="__module.model.layers.1.self_attn/aten::slice/Slice_3" type="Slice" version="opset8">
			<input>
				<port id="0" precision="FP32">
					<dim>-1</dim>
					<dim>4</dim>
					<dim>-1</dim>
					<dim>128</dim>
				</port>
				<port id="1" precision="I64">
					<dim>1</dim>
				</port>
				<port id="2" precision="I64">
					<dim>1</dim>
				</port>
				<port id="3" precision="I64">
					<dim>1</dim>
				</port>
…
		<edge from-layer="4517" from-port="0" to-layer="4520" to-port="1" />
		<edge from-layer="4518" from-port="0" to-layer="4520" to-port="2" />
		<edge from-layer="4519" from-port="0" to-layer="4520" to-port="3" />
		<edge from-layer="4520" from-port="4" to-layer="4521" to-port="1" />
		<edge from-layer="4521" from-port="2" to-layer="4522" to-port="0" />
		<edge from-layer="4522" from-port="1" to-layer="4524" to-port="0" />
		<edge from-layer="4523" from-port="0" to-layer="4524" to-port="2" />
		<edge from-layer="4524" from-port="3" to-layer="4541" to-port="0" />
		<edge from-layer="4525" from-port="0" to-layer="4526" to-port="0" />
		<edge from-layer="4526" from-port="1" to-layer="4529" to-port="0" />
		<edge from-layer="4527" from-port="0" to-layer="4528" to-port="0" />
		<edge from-layer="4528" from-port="1" to-layer="4529" to-port="1" />
		<edge from-layer="4529" from-port="2" to-layer="4531" to-port="0" />
		<edge from-layer="4530" from-port="0" to-layer="4531" to-port="1" />
		<edge from-layer="4531" from-port="2" to-layer="4532" to-port="0" />
		<edge from-layer="4532" from-port="1" to-layer="4533" to-port="1" />
		<edge from-layer="4533" from-port="2" to-layer="4536" to-port="0" />
		<edge from-layer="4534" from-port="0" to-layer="4535" to-port="0" />
		<edge from-layer="4535" from-port="1" to-layer="4536" to-port="1" />
		<edge from-layer="4536" from-port="2" to-layer="4538" to-port="0" />
		<edge from-layer="4537" from-port="0" to-layer="4538" to-port="1" />
		<edge from-layer="4538" from-port="2" to-layer="4540" to-port="0" />
		<edge from-layer="4539" from-port="0" to-layer="4540" to-port="1" />
		<edge from-layer="4540" from-port="2" to-layer="4541" to-port="1" />
		<edge from-layer="4541" from-port="2" to-layer="5186" to-port="0" />
		<edge from-layer="4541" from-port="2" to-layer="4542" to-port="0" />
		<edge from-layer="4542" from-port="2" to-layer="4543" to-port="0" />
		<edge from-layer="4543" from-port="2" to-layer="4545" to-port="0" />
		<edge from-layer="4544" from-port="0" to-layer="4545" to-port="1" />
		<edge from-layer="4545" from-port="2" to-layer="4546" to-port="2" />
		<edge from-layer="4546" from-port="5" to-layer="4548" to-port="0" />
		<edge from-layer="4547" from-port="0" to-layer="4548" to-port="1" />
		<edge from-layer="4548" from-port="2" to-layer="4550" to-port="0" />
		<edge from-layer="4549" from-port="0" to-layer="4550" to-port="1" />
		<edge from-layer="4550" from-port="2" to-layer="4559" to-port="0" />
		<edge from-layer="4551" from-port="0" to-layer="4552" to-port="0" />
		<edge from-layer="4552" from-port="1" to-layer="4555" to-port="0" />
		<edge from-layer="4553" from-port="0" to-layer="4554" to-port="0" />
		<edge from-layer="4554" from-port="1" to-layer="4555" to-port="1" />
		<edge from-layer="4555" from-port="2" to-layer="4557" to-port="0" />
		<edge from-layer="4556" from-port="0" to-layer="4557" to-port="1" />
		<edge from-layer="4557" from-port="2" to-layer="4558" to-port="0" />
		<edge from-layer="4558" from-port="1" to-layer="4559" to-port="1" />
		<edge from-layer="4559" from-port="2" to-layer="4560" to-port="1" />
		<edge from-layer="4560" from-port="2" to-layer="4571" to-port="0" />
		<edge from-layer="4560" from-port="2" to-layer="4602" to-port="0" />
		<edge from-layer="4560" from-port="2" to-layer="4564" to-port="0" />
		<edge from-layer="4561" from-port="0" to-layer="4572" to-port="0" />
		<edge from-layer="4562" from-port="0" to-layer="4570" to-port="0" />
		<edge from-layer="4563" from-port="0" to-layer="4564" to-port="1" />
		<edge from-layer="4564" from-port="2" to-layer="4566" to-port="0" />
		<edge from-layer="4565" from-port="0" to-layer="4566" to-port="1" />
		<edge from-layer="4566" from-port="2" to-layer="4568" to-port="0" />
		<edge from-layer="4567" from-port="0" to-layer="4568" to-port="1" />
		<edge from-layer="4568" from-port="2" to-layer="4569" to-port="0" />
		<edge from-layer="4569" from-port="1" to-layer="4570" to-port="1" />
		<edge from-layer="4570" from-port="2" to-layer="4571" to-port="1" />
		<edge from-layer="4571" from-port="2" to-layer="4572" to-port="1" />
		<edge from-layer="4572" from-port="2" to-layer="4591" to-port="0" />
		<edge from-layer="4572" from-port="2" to-layer="4581" to-port="0" />
		<edge from-layer="4573" from-port="0" to-layer="4574" to-port="0" />
		<edge from-layer="4574" from-port="1" to-layer="4577" to-port="0" />
		<edge from-layer="4575" from-port="0" to-layer="4576" to-port="0" />
		<edge from-layer="4576" from-port="1" to-layer="4577" to-port="1" />
		<edge from-layer="4577" from-port="2" to-layer="4579" to-port="0" />
		<edge from-layer="4578" from-port="0" to-layer="4579" to-port="1" />
		<edge from-layer="4579" from-port="2" to-layer="4580" to-port="0" />
		<edge from-layer="4580" from-port="1" to-layer="4581" to-port="1" />
		<edge from-layer="4581" from-port="2" to-layer="4582" to-port="0" />
		<edge from-layer="4582" from-port="1" to-layer="4592" to-port="0" />
		<edge from-layer="4583" from-port="0" to-layer="4584" to-port="0" />
		<edge from-layer="4584" from-port="1" to-layer="4587" to-port="0" />
		<edge from-layer="4585" from-port="0" to-layer="4586" to-port="0" />
		<edge from-layer="4586" from-port="1" to-layer="4587" to-port="1" />
		<edge from-layer="4587" from-port="2" to-layer="4589" to-port="0" />
		<edge from-layer="4588" from-port="0" to-layer="4589" to-port="1" />
		<edge from-layer="4589" from-port="2" to-layer="4590" to-port="0" />
		<edge from-layer="4590" from-port="1" to-layer="4591" to-port="1" />
		<edge from-layer="4591" from-port="2" to-layer="4592" to-port="1" />
		<edge from-layer="4592" from-port="2" to-layer="4601" to-port="0" />
		<edge from-layer="4593" from-port="0" to-layer="4594" to-port="0" />
		<edge from-layer="4594" from-port="1" to-layer="4597" to-port="0" />
		<edge from-layer="4595" from-port="0" to-layer="4596" to-port="0" />
		<edge from-layer="4596" from-port="1" to-layer="4597" to-port="1" />
		<edge from-layer="4597" from-port="2" to-layer="4599" to-port="0" />
		<edge from-layer="4598" from-port="0" to-layer="4599" to-port="1" />
		<edge from-layer="4599" from-port="2" to-layer="4600" to-port="0" />
		<edge from-layer="4600" from-port="1" to-layer="4601" to-port="1" />
		<edge from-layer="4601" from-port="2" to-layer="4602" to-port="1" />
		<edge from-layer="4602" from-port="2" to-layer="4739" to-port="0" />
		<edge from-layer="4602" from-port="2" to-layer="4606" to-port="0" />
		<edge from-layer="4602" from-port="2" to-layer="4613" to-port="0" />
		<edge from-layer="4603" from-port="0" to-layer="4614" to-port="0" />
		<edge from-layer="4604" from-port="0" to-layer="4612" to-port="0" />
		<edge from-layer="4605" from-port="0" to-layer="4606" to-port="1" />
		<edge from-layer="4606" from-port="2" to-layer="4608" to-port="0" />
		<edge from-layer="4607" from-port="0" to-layer="4608" to-port="1" />
		<edge from-layer="4608" from-port="2" to-layer="4610" to-port="0" />
		<edge from-layer="4609" from-port="0" to-layer="4610" to-port="1" />
		<edge from-layer="4610" from-port="2" to-layer="4611" to-port="0" />
		<edge from-layer="4611" from-port="1" to-layer="4612" to-port="1" />
		<edge from-layer="4612" from-port="2" to-layer="4613" to-port="1" />
		<edge from-layer="4613" from-port="2" to-layer="4614" to-port="1" />
		<edge from-layer="4614" from-port="2" to-layer="4665" to-port="0" />
		<edge from-layer="4614" from-port="2" to-layer="4712" to-port="0" />
		<edge from-layer="4614" from-port="2" to-layer="4623" to-port="0" />
		<edge from-layer="4615" from-port="0" to-layer="4616" to-port="0" />
		<edge from-layer="4616" from-port="1" to-layer="4619" to-port="0" />
		<edge from-layer="4617" from-port="0" to-layer="4618" to-port="0" />
		<edge from-layer="4618" from-port="1" to-layer="4619" to-port="1" />
		<edge from-layer="4619" from-port="2" to-layer="4621" to-port="0" />
		<edge from-layer="4620" from-port="0" to-layer="4621" to-port="1" />
		<edge from-layer="4621" from-port="2" to-layer="4622" to-port="0" />
		<edge from-layer="4622" from-port="1" to-layer="4623" to-port="1" />
		<edge from-layer="4623" from-port="2" to-layer="4626" to-port="0" />
		<edge from-layer="4624" from-port="0" to-layer="4625" to-port="0" />
		<edge from-layer="4625" from-port="1" to-layer="4626" to-port="1" />
		<edge from-layer="4626" from-port="2" to-layer="4628" to-port="0" />
		<edge from-layer="4627" from-port="0" to-layer="4628" to-port="1" />
		<edge from-layer="4628" from-port="2" to-layer="4630" to-port="0" />
		<edge from-layer="4629" from-port="0" to-layer="4630" to-port="1" />
		<edge from-layer="4630" from-port="2" to-layer="4631" to-port="0" />
		<edge from-layer="4630" from-port="2" to-layer="4636" to-port="0" />
		<edge from-layer="4630" from-port="2" to-layer="4644" to-port="0" />
		<edge from-layer="4631" from-port="2" to-layer="4647" to-port="0" />
		<edge from-layer="4632" from-port="0" to-layer="4636" to-port="1" />
		<edge from-layer="4633" from-port="0" to-layer="4636" to-port="2" />
		<edge from-layer="4634" from-port="0" to-layer="4636" to-port="3" />
		<edge from-layer="4635" from-port="0" to-layer="4636" to-port="4" />
		<edge from-layer="4636" from-port="5" to-layer="4639" to-port="0" />
		<edge from-layer="4637" from-port="0" to-layer="4638" to-port="0" />
		<edge from-layer="4638" from-port="1" to-layer="4639" to-port="1" />
		<edge from-layer="4639" from-port="2" to-layer="4645" to-port="0" />
		<edge from-layer="4640" from-port="0" to-layer="4644" to-port="1" />
		<edge from-layer="4641" from-port="0" to-layer="4644" to-port="2" />
		<edge from-layer="4642" from-port="0" to-layer="4644" to-port="3" />
		<edge from-layer="4643" from-port="0" to-layer="4644" to-port="4" />
		<edge from-layer="4644" from-port="5" to-layer="4645" to-port="1" />
		<edge from-layer="4645" from-port="2" to-layer="4646" to-port="0" />
		<edge from-layer="4646" from-port="2" to-layer="4647" to-port="1" />
		<edge from-layer="4647" from-port="2" to-layer="4725" to-port="0" />
		<edge from-layer="4648" from-port="0" to-layer="4653" to-port="0" />
		<edge from-layer="4649" from-port="0" to-layer="4652" to-port="1" />
		<edge from-layer="4650" from-port="0" to-layer="4652" to-port="2" />
		<edge from-layer="4651" from-port="0" to-layer="4652" to-port="3" />
		<edge from-layer="4652" from-port="4" to-layer="4653" to-port="1" />
		<edge from-layer="4653" from-port="2" to-layer="4654" to-port="0" />
		<edge from-layer="4654" from-port="1" to-layer="4656" to-port="0" />
		<edge from-layer="4655" from-port="0" to-layer="4656" to-port="2" />
		<edge from-layer="4656" from-port="3" to-layer="4690" to-port="0" />
		<edge from-layer="4657" from-port="0" to-layer="4658" to-port="0" />
		<edge from-layer="4658" from-port="1" to-layer="4661" to-port="0" />
		<edge from-layer="4659" from-port="0" to-layer="4660" to-port="0" />
		<edge from-layer="4660" from-port="1" to-layer="4661" to-port="1" />
		<edge from-layer="4661" from-port="2" to-layer="4663" to-port="0" />
		<edge from-layer="4662" from-port="0" to-layer="4663" to-port="1" />
		<edge from-layer="4663" from-port="2" to-layer="4664" to-port="0" />
		<edge from-layer="4664" from-port="1" to-layer="4665" to-port="1" />
		<edge from-layer="4665" from-port="2" to-layer="4668" to-port="0" />
		<edge from-layer="4666" from-port="0" to-layer="4667" to-port="0" />
		<edge from-layer="4667" from-port="1" to-layer="4668" to-port="1" />
		<edge from-layer="4668" from-port="2" to-layer="4670" to-port="0" />
		<edge from-layer="4669" from-port="0" to-layer="4670" to-port="1" />
		<edge from-layer="4670" from-port="2" to-layer="4672" to-port="0" />
		<edge from-layer="4671" from-port="0" to-layer="4672" to-port="1" />
		<edge from-layer="4672" from-port="2" to-layer="4686" to-port="0" />
		<edge from-layer="4672" from-port="2" to-layer="4678" to-port="0" />
		<edge from-layer="4672" from-port="2" to-layer="4673" to-port="0" />
		<edge from-layer="4673" from-port="2" to-layer="4689" to-port="0" />
		<edge from-layer="4674" from-port="0" to-layer="4678" to-port="1" />
		<edge from-layer="4675" from-port="0" to-layer="4678" to-port="2" />
		<edge from-layer="4676" from-port="0" to-layer="4678" to-port="3" />
		<edge from-layer="4677" from-port="0" to-layer="4678" to-port="4" />
		<edge from-layer="4678" from-port="5" to-layer="4681" to-port="0" />
		<edge from-layer="4679" from-port="0" to-layer="4680" to-port="0" />
		<edge from-layer="4680" from-port="1" to-layer="4681" to-port="1" />
		<edge from-layer="4681" from-port="2" to-layer="4687" to-port="0" />
		<edge from-layer="4682" from-port="0" to-layer="4686" to-port="1" />
		<edge from-layer="4683" from-port="0" to-layer="4686" to-port="2" />
		<edge from-layer="4684" from-port="0" to-layer="4686" to-port="3" />
		<edge from-layer="4685" from-port="0" to-layer="4686" to-port="4" />
		<edge from-layer="4686" from-port="5" to-layer="4687" to-port="1" />
		<edge from-layer="4687" from-port="2" to-layer="4688" to-port="0" />
		<edge from-layer="4688" from-port="2" to-layer="4689" to-port="1" />
		<edge from-layer="4689" from-port="2" to-layer="4690" to-port="1" />
		<edge from-layer="4690" from-port="2" to-layer="5187" to-port="0" />
		<edge from-layer="4690" from-port="2" to-layer="4691" to-port="0" />
		<edge from-layer="4691" from-port="2" to-layer="4692" to-port="0" />
		<edge from-layer="4692" from-port="2" to-layer="4694" to-port="0" />
		<edge from-layer="4693" from-port="0" to-layer="4694" to-port="1" />
		<edge from-layer="4694" from-port="2" to-layer="4725" to-port="1" />
		<edge from-layer="4695" from-port="0" to-layer="4700" to-port="0" />
		<edge from-layer="4696" from-port="0" to-layer="4699" to-port="1" />
		<edge from-layer="4697" from-port="0" to-layer="4699" to-port="2" />
		<edge from-layer="4698" from-port="0" to-layer="4699" to-port="3" />
		<edge from-layer="4699" from-port="4" to-layer="4700" to-port="1" />
		<edge from-layer="4700" from-port="2" to-layer="4701" to-port="0" />
		<edge from-layer="4701" from-port="1" to-layer="4703" to-port="0" />
		<edge from-layer="4702" from-port="0" to-layer="4703" to-port="2" />
		<edge from-layer="4703" from-port="3" to-layer="4720" to-port="0" />
		<edge from-layer="4704" from-port="0" to-layer="4705" to-port="0" />
		<edge from-layer="4705" from-port="1" to-layer="4708" to-port="0" />
		<edge from-layer="4706" from-port="0" to-layer="4707" to-port="0" />
		<edge from-layer="4707" from-port="1" to-layer="4708" to-port="1" />
		<edge from-layer="4708" from-port="2" to-layer="4710" to-port="0" />
		<edge from-layer="4709" from-port="0" to-layer="4710" to-port="1" />
		<edge from-layer="4710" from-port="2" to-layer="4711" to-port="0" />
		<edge from-layer="4711" from-port="1" to-layer="4712" to-port="1" />
		<edge from-layer="4712" from-port="2" to-layer="4715" to-port="0" />
		<edge from-layer="4713" from-port="0" to-layer="4714" to-port="0" />
		<edge from-layer="4714" from-port="1" to-layer="4715" to-port="1" />
		<edge from-layer="4715" from-port="2" to-layer="4717" to-port="0" />
		<edge from-layer="4716" from-port="0" to-layer="4717" to-port="1" />
		<edge from-layer="4717" from-port="2" to-layer="4719" to-port="0" />
		<edge from-layer="4718" from-port="0" to-layer="4719" to-port="1" />
		<edge from-layer="4719" from-port="2" to-layer="4720" to-port="1" />
		<edge from-layer="4720" from-port="2" to-layer="4721" to-port="0" />
		<edge from-layer="4720" from-port="2" to-layer="5188" to-port="0" />
		<edge from-layer="4721" from-port="2" to-layer="4722" to-port="0" />
		<edge from-layer="4722" from-port="2" to-layer="4724" to-port="0" />
		<edge from-layer="4723" from-port="0" to-layer="4724" to-port="1" />
		<edge from-layer="4724" from-port="2" to-layer="4725" to-port="2" />
		<edge from-layer="4725" from-port="5" to-layer="4727" to-port="0" />
		<edge from-layer="4726" from-port="0" to-layer="4727" to-port="1" />
		<edge from-layer="4727" from-port="2" to-layer="4729" to-port="0" />
		<edge from-layer="4728" from-port="0" to-layer="4729" to-port="1" />
		<edge from-layer="4729" from-port="2" to-layer="4738" to-port="0" />
		<edge from-layer="4730" from-port="0" to-layer="4731" to-port="0" />
		<edge from-layer="4731" from-port="1" to-layer="4734" to-port="0" />
		<edge from-layer="4732" from-port="0" to-layer="4733" to-port="0" />
		<edge from-layer="4733" from-port="1" to-layer="4734" to-port="1" />
		<edge from-layer="4734" from-port="2" to-layer="4736" to-port="0" />
		<edge from-layer="4735" from-port="0" to-layer="4736" to-port="1" />
		<edge from-layer="4736" from-port="2" to-layer="4737" to-port="0" />
		<edge from-layer="4737" from-port="1" to-layer="4738" to-port="1" />
		<edge from-layer="4738" from-port="2" to-layer="4739" to-port="1" />
		<edge from-layer="4739" from-port="2" to-layer="4743" to-port="0" />
		<edge from-layer="4739" from-port="2" to-layer="4781" to-port="0" />
		<edge from-layer="4739" from-port="2" to-layer="4750" to-port="0" />
		<edge from-layer="4740" from-port="0" to-layer="4751" to-port="0" />
		<edge from-layer="4741" from-port="0" to-layer="4749" to-port="0" />
		<edge from-layer="4742" from-port="0" to-layer="4743" to-port="1" />
		<edge from-layer="4743" from-port="2" to-layer="4745" to-port="0" />
		<edge from-layer="4744" from-port="0" to-layer="4745" to-port="1" />
		<edge from-layer="4745" from-port="2" to-layer="4747" to-port="0" />
		<edge from-layer="4746" from-port="0" to-layer="4747" to-port="1" />
		<edge from-layer="4747" from-port="2" to-layer="4748" to-port="0" />
		<edge from-layer="4748" from-port="1" to-layer="4749" to-port="1" />
		<edge from-layer="4749" from-port="2" to-layer="4750" to-port="1" />
		<edge from-layer="4750" from-port="2" to-layer="4751" to-port="1" />
		<edge from-layer="4751" from-port="2" to-layer="4770" to-port="0" />
		<edge from-layer="4751" from-port="2" to-layer="4760" to-port="0" />
		<edge from-layer="4752" from-port="0" to-layer="4753" to-port="0" />
		<edge from-layer="4753" from-port="1" to-layer="4756" to-port="0" />
		<edge from-layer="4754" from-port="0" to-layer="4755" to-port="0" />
		<edge from-layer="4755" from-port="1" to-layer="4756" to-port="1" />
		<edge from-layer="4756" from-port="2" to-layer="4758" to-port="0" />
		<edge from-layer="4757" from-port="0" to-layer="4758" to-port="1" />
		<edge from-layer="4758" from-port="2" to-layer="4759" to-port="0" />
		<edge from-layer="4759" from-port="1" to-layer="4760" to-port="1" />
		<edge from-layer="4760" from-port="2" to-layer="4761" to-port="0" />
		<edge from-layer="4761" from-port="1" to-layer="4771" to-port="0" />
		<edge from-layer="4762" from-port="0" to-layer="4763" to-port="0" />
		<edge from-layer="4763" from-port="1" to-layer="4766" to-port="0" />
		<edge from-layer="4764" from-port="0" to-layer="4765" to-port="0" />
		<edge from-layer="4765" from-port="1" to-layer="4766" to-port="1" />
		<edge from-layer="4766" from-port="2" to-layer="4768" to-port="0" />
		<edge from-layer="4767" from-port="0" to-layer="4768" to-port="1" />
		<edge from-layer="4768" from-port="2" to-layer="4769" to-port="0" />
		<edge from-layer="4769" from-port="1" to-layer="4770" to-port="1" />
		<edge from-layer="4770" from-port="2" to-layer="4771" to-port="1" />
		<edge from-layer="4771" from-port="2" to-layer="4780" to-port="0" />
		<edge from-layer="4772" from-port="0" to-layer="4773" to-port="0" />
		<edge from-layer="4773" from-port="1" to-layer="4776" to-port="0" />
		<edge from-layer="4774" from-port="0" to-layer="4775" to-port="0" />
		<edge from-layer="4775" from-port="1" to-layer="4776" to-port="1" />
		<edge from-layer="4776" from-port="2" to-layer="4778" to-port="0" />
		<edge from-layer="4777" from-port="0" to-layer="4778" to-port="1" />
		<edge from-layer="4778" from-port="2" to-layer="4779" to-port="0" />
		<edge from-layer="4779" from-port="1" to-layer="4780" to-port="1" />
		<edge from-layer="4780" from-port="2" to-layer="4781" to-port="1" />
		<edge from-layer="4781" from-port="2" to-layer="4918" to-port="0" />
		<edge from-layer="4781" from-port="2" to-layer="4785" to-port="0" />
		<edge from-layer="4781" from-port="2" to-layer="4792" to-port="0" />
		<edge from-layer="4782" from-port="0" to-layer="4793" to-port="0" />
		<edge from-layer="4783" from-port="0" to-layer="4791" to-port="0" />
		<edge from-layer="4784" from-port="0" to-layer="4785" to-port="1" />
		<edge from-layer="4785" from-port="2" to-layer="4787" to-port="0" />
		<edge from-layer="4786" from-port="0" to-layer="4787" to-port="1" />
		<edge from-layer="4787" from-port="2" to-layer="4789" to-port="0" />
		<edge from-layer="4788" from-port="0" to-layer="4789" to-port="1" />
		<edge from-layer="4789" from-port="2" to-layer="4790" to-port="0" />
		<edge from-layer="4790" from-port="1" to-layer="4791" to-port="1" />
		<edge from-layer="4791" from-port="2" to-layer="4792" to-port="1" />
		<edge from-layer="4792" from-port="2" to-layer="4793" to-port="1" />
		<edge from-layer="4793" from-port="2" to-layer="4891" to-port="0" />
		<edge from-layer="4793" from-port="2" to-layer="4802" to-port="0" />
		<edge from-layer="4793" from-port="2" to-layer="4844" to-port="0" />
		<edge from-layer="4794" from-port="0" to-layer="4795" to-port="0" />
		<edge from-layer="4795" from-port="1" to-layer="4798" to-port="0" />
		<edge from-layer="4796" from-port="0" to-layer="4797" to-port="0" />
		<edge from-layer="4797" from-port="1" to-layer="4798" to-port="1" />
		<edge from-layer="4798" from-port="2" to-layer="4800" to-port="0" />
		<edge from-layer="4799" from-port="0" to-layer="4800" to-port="1" />
		<edge from-layer="4800" from-port="2" to-layer="4801" to-port="0" />
		<edge from-layer="4801" from-port="1" to-layer="4802" to-port="1" />
		<edge from-layer="4802" from-port="2" to-layer="4805" to-port="0" />
		<edge from-layer="4803" from-port="0" to-layer="4804" to-port="0" />
		<edge from-layer="4804" from-port="1" to-layer="4805" to-port="1" />
		<edge from-layer="4805" from-port="2" to-layer="4807" to-port="0" />
		<edge from-layer="4806" from-port="0" to-layer="4807" to-port="1" />
		<edge from-layer="4807" from-port="2" to-layer="4809" to-port="0" />
		<edge from-layer="4808" from-port="0" to-layer="4809" to-port="1" />
		<edge from-layer="4809" from-port="2" to-layer="4815" to-port="0" />
		<edge from-layer="4809" from-port="2" to-layer="4810" to-port="0" />
		<edge from-layer="4809" from-port="2" to-layer="4823" to-port="0" />
		<edge from-layer="4810" from-port="2" to-layer="4826" to-port="0" />
		<edge from-layer="4811" from-port="0" to-layer="4815" to-port="1" />
		<edge from-layer="4812" from-port="0" to-layer="4815" to-port="2" />
		<edge from-layer="4813" from-port="0" to-layer="4815" to-port="3" />
		<edge from-layer="4814" from-port="0" to-layer="4815" to-port="4" />
		<edge from-layer="4815" from-port="5" to-layer="4818" to-port="0" />
		<edge from-layer="4816" from-port="0" to-layer="4817" to-port="0" />
		<edge from-layer="4817" from-port="1" to-layer="4818" to-port="1" />
		<edge from-layer="4818" from-port="2" to-layer="4824" to-port="0" />
		<edge from-layer="4819" from-port="0" to-layer="4823" to-port="1" />
		<edge from-layer="4820" from-port="0" to-layer="4823" to-port="2" />
		<edge from-layer="4821" from-port="0" to-layer="4823" to-port="3" />
		<edge from-layer="4822" from-port="0" to-layer="4823" to-port="4" />
		<edge from-layer="4823" from-port="5" to-layer="4824" to-port="1" />
		<edge from-layer="4824" from-port="2" to-layer="4825" to-port="0" />
		<edge from-layer="4825" from-port="2" to-layer="4826" to-port="1" />
		<edge from-layer="4826" from-port="2" to-layer="4904" to-port="0" />
		<edge from-layer="4827" from-port="0" to-layer="4832" to-port="0" />
		<edge from-layer="4828" from-port="0" to-layer="4831" to-port="1" />
		<edge from-layer="4829" from-port="0" to-layer="4831" to-port="2" />
		<edge from-layer="4830" from-port="0" to-layer="4831" to-port="3" />
		<edge from-layer="4831" from-port="4" to-layer="4832" to-port="1" />
		<edge from-layer="4832" from-port="2" to-layer="4833" to-port="0" />
		<edge from-layer="4833" from-port="1" to-layer="4835" to-port="0" />
		<edge from-layer="4834" from-port="0" to-layer="4835" to-port="2" />
		<edge from-layer="4835" from-port="3" to-layer="4869" to-port="0" />
		<edge from-layer="4836" from-port="0" to-layer="4837" to-port="0" />
		<edge from-layer="4837" from-port="1" to-layer="4840" to-port="0" />
		<edge from-layer="4838" from-port="0" to-layer="4839" to-port="0" />
		<edge from-layer="4839" from-port="1" to-layer="4840" to-port="1" />
		<edge from-layer="4840" from-port="2" to-layer="4842" to-port="0" />
		<edge from-layer="4841" from-port="0" to-layer="4842" to-port="1" />
		<edge from-layer="4842" from-port="2" to-layer="4843" to-port="0" />
		<edge from-layer="4843" from-port="1" to-layer="4844" to-port="1" />
		<edge from-layer="4844" from-port="2" to-layer="4847" to-port="0" />
		<edge from-layer="4845" from-port="0" to-layer="4846" to-port="0" />
		<edge from-layer="4846" from-port="1" to-layer="4847" to-port="1" />
		<edge from-layer="4847" from-port="2" to-layer="4849" to-port="0" />
		<edge from-layer="4848" from-port="0" to-layer="4849" to-port="1" />
		<edge from-layer="4849" from-port="2" to-layer="4851" to-port="0" />
		<edge from-layer="4850" from-port="0" to-layer="4851" to-port="1" />
		<edge from-layer="4851" from-port="2" to-layer="4865" to-port="0" />
		<edge from-layer="4851" from-port="2" to-layer="4857" to-port="0" />
		<edge from-layer="4851" from-port="2" to-layer="4852" to-port="0" />
		<edge from-layer="4852" from-port="2" to-layer="4868" to-port="0" />
		<edge from-layer="4853" from-port="0" to-layer="4857" to-port="1" />
		<edge from-layer="4854" from-port="0" to-layer="4857" to-port="2" />
		<edge from-layer="4855" from-port="0" to-layer="4857" to-port="3" />
		<edge from-layer="4856" from-port="0" to-layer="4857" to-port="4" />
		<edge from-layer="4857" from-port="5" to-layer="4860" to-port="0" />
		<edge from-layer="4858" from-port="0" to-layer="4859" to-port="0" />
		<edge from-layer="4859" from-port="1" to-layer="4860" to-port="1" />
		<edge from-layer="4860" from-port="2" to-layer="4866" to-port="0" />
		<edge from-layer="4861" from-port="0" to-layer="4865" to-port="1" />
		<edge from-layer="4862" from-port="0" to-layer="4865" to-port="2" />
		<edge from-layer="4863" from-port="0" to-layer="4865" to-port="3" />
		<edge from-layer="4864" from-port="0" to-layer="4865" to-port="4" />
		<edge from-layer="4865" from-port="5" to-layer="4866" to-port="1" />
		<edge from-layer="4866" from-port="2" to-layer="4867" to-port="0" />
		<edge from-layer="4867" from-port="2" to-layer="4868" to-port="1" />
		<edge from-layer="4868" from-port="2" to-layer="4869" to-port="1" />
		<edge from-layer="4869" from-port="2" to-layer="4870" to-port="0" />
		<edge from-layer="4869" from-port="2" to-layer="5189" to-port="0" />
		<edge from-layer="4870" from-port="2" to-layer="4871" to-port="0" />
		<edge from-layer="4871" from-port="2" to-layer="4873" to-port="0" />
		<edge from-layer="4872" from-port="0" to-layer="4873" to-port="1" />
		<edge from-layer="4873" from-port="2" to-layer="4904" to-port="1" />
		<edge from-layer="4874" from-port="0" to-layer="4879" to-port="0" />
		<edge from-layer="4875" from-port="0" to-layer="4878" to-port="1" />
		<edge from-layer="4876" from-port="0" to-layer="4878" to-port="2" />
		<edge from-layer="4877" from-port="0" to-layer="4878" to-port="3" />
		<edge from-layer="4878" from-port="4" to-layer="4879" to-port="1" />
		<edge from-layer="4879" from-port="2" to-layer="4880" to-port="0" />
		<edge from-layer="4880" from-port="1" to-layer="4882" to-port="0" />
		<edge from-layer="4881" from-port="0" to-layer="4882" to-port="2" />
		<edge from-layer="4882" from-port="3" to-layer="4899" to-port="0" />
		<edge from-layer="4883" from-port="0" to-layer="4884" to-port="0" />
		<edge from-layer="4884" from-port="1" to-layer="4887" to-port="0" />
		<edge from-layer="4885" from-port="0" to-layer="4886" to-port="0" />
		<edge from-layer="4886" from-port="1" to-layer="4887" to-port="1" />
		<edge from-layer="4887" from-port="2" to-layer="4889" to-port="0" />
		<edge from-layer="4888" from-port="0" to-layer="4889" to-port="1" />
		<edge from-layer="4889" from-port="2" to-layer="4890" to-port="0" />
		<edge from-layer="4890" from-port="1" to-layer="4891" to-port="1" />
		<edge from-layer="4891" from-port="2" to-layer="4894" to-port="0" />
		<edge from-layer="4892" from-port="0" to-layer="4893" to-port="0" />
		<edge from-layer="4893" from-port="1" to-layer="4894" to-port="1" />
		<edge from-layer="4894" from-port="2" to-layer="4896" to-port="0" />
		<edge from-layer="4895" from-port="0" to-layer="4896" to-port="1" />
		<edge from-layer="4896" from-port="2" to-layer="4898" to-port="0" />
		<edge from-layer="4897" from-port="0" to-layer="4898" to-port="1" />
		<edge from-layer="4898" from-port="2" to-layer="4899" to-port="1" />
		<edge from-layer="4899" from-port="2" to-layer="5190" to-port="0" />
		<edge from-layer="4899" from-port="2" to-layer="4900" to-port="0" />
		<edge from-layer="4900" from-port="2" to-layer="4901" to-port="0" />
		<edge from-layer="4901" from-port="2" to-layer="4903" to-port="0" />
		<edge from-layer="4902" from-port="0" to-layer="4903" to-port="1" />
		<edge from-layer="4903" from-port="2" to-layer="4904" to-port="2" />
		<edge from-layer="4904" from-port="5" to-layer="4906" to-port="0" />
		<edge from-layer="4905" from-port="0" to-layer="4906" to-port="1" />
		<edge from-layer="4906" from-port="2" to-layer="4908" to-port="0" />
		<edge from-layer="4907" from-port="0" to-layer="4908" to-port="1" />
		<edge from-layer="4908" from-port="2" to-layer="4917" to-port="0" />
		<edge from-layer="4909" from-port="0" to-layer="4910" to-port="0" />
		<edge from-layer="4910" from-port="1" to-layer="4913" to-port="0" />
		<edge from-layer="4911" from-port="0" to-layer="4912" to-port="0" />
		<edge from-layer="4912" from-port="1" to-layer="4913" to-port="1" />
		<edge from-layer="4913" from-port="2" to-layer="4915" to-port="0" />
		<edge from-layer="4914" from-port="0" to-layer="4915" to-port="1" />
		<edge from-layer="4915" from-port="2" to-layer="4916" to-port="0" />
		<edge from-layer="4916" from-port="1" to-layer="4917" to-port="1" />
		<edge from-layer="4917" from-port="2" to-layer="4918" to-port="1" />
		<edge from-layer="4918" from-port="2" to-layer="4929" to-port="0" />
		<edge from-layer="4918" from-port="2" to-layer="4960" to-port="0" />
		<edge from-layer="4918" from-port="2" to-layer="4922" to-port="0" />
		<edge from-layer="4919" from-port="0" to-layer="4930" to-port="0" />
		<edge from-layer="4920" from-port="0" to-layer="4928" to-port="0" />
		<edge from-layer="4921" from-port="0" to-layer="4922" to-port="1" />
		<edge from-layer="4922" from-port="2" to-layer="4924" to-port="0" />
		<edge from-layer="4923" from-port="0" to-layer="4924" to-port="1" />
		<edge from-layer="4924" from-port="2" to-layer="4926" to-port="0" />
		<edge from-layer="4925" from-port="0" to-layer="4926" to-port="1" />
		<edge from-layer="4926" from-port="2" to-layer="4927" to-port="0" />
		<edge from-layer="4927" from-port="1" to-layer="4928" to-port="1" />
		<edge from-layer="4928" from-port="2" to-layer="4929" to-port="1" />
		<edge from-layer="4929" from-port="2" to-layer="4930" to-port="1" />
		<edge from-layer="4930" from-port="2" to-layer="4939" to-port="0" />
		<edge from-layer="4930" from-port="2" to-layer="4949" to-port="0" />
		<edge from-layer="4931" from-port="0" to-layer="4932" to-port="0" />
		<edge from-layer="4932" from-port="1" to-layer="4935" to-port="0" />
		<edge from-layer="4933" from-port="0" to-layer="4934" to-port="0" />
		<edge from-layer="4934" from-port="1" to-layer="4935" to-port="1" />
		<edge from-layer="4935" from-port="2" to-layer="4937" to-port="0" />
		<edge from-layer="4936" from-port="0" to-layer="4937" to-port="1" />
		<edge from-layer="4937" from-port="2" to-layer="4938" to-port="0" />
		<edge from-layer="4938" from-port="1" to-layer="4939" to-port="1" />
		<edge from-layer="4939" from-port="2" to-layer="4940" to-port="0" />
		<edge from-layer="4940" from-port="1" to-layer="4950" to-port="0" />
		<edge from-layer="4941" from-port="0" to-layer="4942" to-port="0" />
		<edge from-layer="4942" from-port="1" to-layer="4945" to-port="0" />
		<edge from-layer="4943" from-port="0" to-layer="4944" to-port="0" />
		<edge from-layer="4944" from-port="1" to-layer="4945" to-port="1" />
		<edge from-layer="4945" from-port="2" to-layer="4947" to-port="0" />
		<edge from-layer="4946" from-port="0" to-layer="4947" to-port="1" />
		<edge from-layer="4947" from-port="2" to-layer="4948" to-port="0" />
		<edge from-layer="4948" from-port="1" to-layer="4949" to-port="1" />
		<edge from-layer="4949" from-port="2" to-layer="4950" to-port="1" />
		<edge from-layer="4950" from-port="2" to-layer="4959" to-port="0" />
		<edge from-layer="4951" from-port="0" to-layer="4952" to-port="0" />
		<edge from-layer="4952" from-port="1" to-layer="4955" to-port="0" />
		<edge from-layer="4953" from-port="0" to-layer="4954" to-port="0" />
		<edge from-layer="4954" from-port="1" to-layer="4955" to-port="1" />
		<edge from-layer="4955" from-port="2" to-layer="4957" to-port="0" />
		<edge from-layer="4956" from-port="0" to-layer="4957" to-port="1" />
		<edge from-layer="4957" from-port="2" to-layer="4958" to-port="0" />
		<edge from-layer="4958" from-port="1" to-layer="4959" to-port="1" />
		<edge from-layer="4959" from-port="2" to-layer="4960" to-port="1" />
		<edge from-layer="4960" from-port="2" to-layer="5088" to-port="0" />
		<edge from-layer="4960" from-port="2" to-layer="4963" to-port="0" />
		<edge from-layer="4960" from-port="2" to-layer="4970" to-port="0" />
		<edge from-layer="4961" from-port="0" to-layer="4969" to-port="0" />
		<edge from-layer="4962" from-port="0" to-layer="4963" to-port="1" />
		<edge from-layer="4963" from-port="2" to-layer="4965" to-port="0" />
		<edge from-layer="4964" from-port="0" to-layer="4965" to-port="1" />
		<edge from-layer="4965" from-port="2" to-layer="4967" to-port="0" />
		<edge from-layer="4966" from-port="0" to-layer="4967" to-port="1" />
		<edge from-layer="4967" from-port="2" to-layer="4968" to-port="0" />
		<edge from-layer="4968" from-port="1" to-layer="4969" to-port="1" />
		<edge from-layer="4969" from-port="2" to-layer="4970" to-port="1" />
		<edge from-layer="4970" from-port="2" to-layer="4971" to-port="1" />
		<edge from-layer="4971" from-port="2" to-layer="5006" to-port="0" />
		<edge from-layer="4971" from-port="2" to-layer="5041" to-port="0" />
		<edge from-layer="4971" from-port="2" to-layer="4980" to-port="0" />
		<edge from-layer="4972" from-port="0" to-layer="4973" to-port="0" />
		<edge from-layer="4973" from-port="1" to-layer="4976" to-port="0" />
		<edge from-layer="4974" from-port="0" to-layer="4975" to-port="0" />
		<edge from-layer="4975" from-port="1" to-layer="4976" to-port="1" />
		<edge from-layer="4976" from-port="2" to-layer="4978" to-port="0" />
		<edge from-layer="4977" from-port="0" to-layer="4978" to-port="1" />
		<edge from-layer="4978" from-port="2" to-layer="4979" to-port="0" />
		<edge from-layer="4979" from-port="1" to-layer="4980" to-port="1" />
		<edge from-layer="4980" from-port="2" to-layer="4983" to-port="0" />
		<edge from-layer="4981" from-port="0" to-layer="4982" to-port="0" />
		<edge from-layer="4982" from-port="1" to-layer="4983" to-port="1" />
		<edge from-layer="4983" from-port="2" to-layer="4985" to-port="0" />
		<edge from-layer="4984" from-port="0" to-layer="4985" to-port="1" />
		<edge from-layer="4985" from-port="2" to-layer="4987" to-port="0" />
		<edge from-layer="4986" from-port="0" to-layer="4987" to-port="1" />
		<edge from-layer="4987" from-port="2" to-layer="4988" to-port="1" />
		<edge from-layer="4988" from-port="2" to-layer="5070" to-port="0" />
		<edge from-layer="4988" from-port="2" to-layer="5192" to-port="0" />
		<edge from-layer="4989" from-port="0" to-layer="4994" to-port="0" />
		<edge from-layer="4990" from-port="0" to-layer="4993" to-port="1" />
		<edge from-layer="4991" from-port="0" to-layer="4993" to-port="2" />
		<edge from-layer="4992" from-port="0" to-layer="4993" to-port="3" />
		<edge from-layer="4993" from-port="4" to-layer="4994" to-port="1" />
		<edge from-layer="4994" from-port="2" to-layer="4995" to-port="0" />
		<edge from-layer="4995" from-port="1" to-layer="4997" to-port="0" />
		<edge from-layer="4996" from-port="0" to-layer="4997" to-port="2" />
		<edge from-layer="4997" from-port="3" to-layer="5031" to-port="0" />
		<edge from-layer="4998" from-port="0" to-layer="4999" to-port="0" />
		<edge from-layer="4999" from-port="1" to-layer="5002" to-port="0" />
		<edge from-layer="5000" from-port="0" to-layer="5001" to-port="0" />
		<edge from-layer="5001" from-port="1" to-layer="5002" to-port="1" />
		<edge from-layer="5002" from-port="2" to-layer="5004" to-port="0" />
		<edge from-layer="5003" from-port="0" to-layer="5004" to-port="1" />
		<edge from-layer="5004" from-port="2" to-layer="5005" to-port="0" />
		<edge from-layer="5005" from-port="1" to-layer="5006" to-port="1" />
		<edge from-layer="5006" from-port="2" to-layer="5009" to-port="0" />
		<edge from-layer="5007" from-port="0" to-layer="5008" to-port="0" />
		<edge from-layer="5008" from-port="1" to-layer="5009" to-port="1" />
		<edge from-layer="5009" from-port="2" to-layer="5011" to-port="0" />
		<edge from-layer="5010" from-port="0" to-layer="5011" to-port="1" />
		<edge from-layer="5011" from-port="2" to-layer="5013" to-port="0" />
		<edge from-layer="5012" from-port="0" to-layer="5013" to-port="1" />
		<edge from-layer="5013" from-port="2" to-layer="5027" to-port="0" />
		<edge from-layer="5013" from-port="2" to-layer="5019" to-port="0" />
		<edge from-layer="5013" from-port="2" to-layer="5014" to-port="0" />
		<edge from-layer="5014" from-port="2" to-layer="5030" to-port="0" />
		<edge from-layer="5015" from-port="0" to-layer="5019" to-port="1" />
		<edge from-layer="5016" from-port="0" to-layer="5019" to-port="2" />
		<edge from-layer="5017" from-port="0" to-layer="5019" to-port="3" />
		<edge from-layer="5018" from-port="0" to-layer="5019" to-port="4" />
		<edge from-layer="5019" from-port="5" to-layer="5022" to-port="0" />
		<edge from-layer="5020" from-port="0" to-layer="5021" to-port="0" />
		<edge from-layer="5021" from-port="1" to-layer="5022" to-port="1" />
		<edge from-layer="5022" from-port="2" to-layer="5028" to-port="0" />
		<edge from-layer="5023" from-port="0" to-layer="5027" to-port="1" />
		<edge from-layer="5024" from-port="0" to-layer="5027" to-port="2" />
		<edge from-layer="5025" from-port="0" to-layer="5027" to-port="3" />
		<edge from-layer="5026" from-port="0" to-layer="5027" to-port="4" />
		<edge from-layer="5027" from-port="5" to-layer="5028" to-port="1" />
		<edge from-layer="5028" from-port="2" to-layer="5029" to-port="0" />
		<edge from-layer="5029" from-port="2" to-layer="5030" to-port="1" />
		<edge from-layer="5030" from-port="2" to-layer="5031" to-port="1" />
		<edge from-layer="5031" from-port="2" to-layer="5191" to-port="0" />
		<edge from-layer="5031" from-port="2" to-layer="5066" to-port="0" />
		<edge from-layer="5032" from-port="0" to-layer="5141" to-port="0" />
		<edge from-layer="5033" from-port="0" to-layer="5034" to-port="0" />
		<edge from-layer="5034" from-port="1" to-layer="5037" to-port="0" />
		<edge from-layer="5035" from-port="0" to-layer="5036" to-port="0" />
		<edge from-layer="5036" from-port="1" to-layer="5037" to-port="1" />
		<edge from-layer="5037" from-port="2" to-layer="5039" to-port="0" />
		<edge from-layer="5038" from-port="0" to-layer="5039" to-port="1" />
		<edge from-layer="5039" from-port="2" to-layer="5040" to-port="0" />
		<edge from-layer="5040" from-port="1" to-layer="5041" to-port="1" />
		<edge from-layer="5041" from-port="2" to-layer="5044" to-port="0" />
		<edge from-layer="5042" from-port="0" to-layer="5043" to-port="0" />
		<edge from-layer="5043" from-port="1" to-layer="5044" to-port="1" />
		<edge from-layer="5044" from-port="2" to-layer="5046" to-port="0" />
		<edge from-layer="5045" from-port="0" to-layer="5046" to-port="1" />
		<edge from-layer="5046" from-port="2" to-layer="5048" to-port="0" />
		<edge from-layer="5047" from-port="0" to-layer="5048" to-port="1" />
		<edge from-layer="5048" from-port="2" to-layer="5049" to-port="0" />
		<edge from-layer="5048" from-port="2" to-layer="5062" to-port="0" />
		<edge from-layer="5048" from-port="2" to-layer="5054" to-port="0" />
		<edge from-layer="5049" from-port="2" to-layer="5065" to-port="0" />
		<edge from-layer="5050" from-port="0" to-layer="5054" to-port="1" />
		<edge from-layer="5051" from-port="0" to-layer="5054" to-port="2" />
		<edge from-layer="5052" from-port="0" to-layer="5054" to-port="3" />
		<edge from-layer="5053" from-port="0" to-layer="5054" to-port="4" />
		<edge from-layer="5054" from-port="5" to-layer="5057" to-port="0" />
		<edge from-layer="5055" from-port="0" to-layer="5056" to-port="0" />
		<edge from-layer="5056" from-port="1" to-layer="5057" to-port="1" />
		<edge from-layer="5057" from-port="2" to-layer="5063" to-port="0" />
		<edge from-layer="5058" from-port="0" to-layer="5062" to-port="1" />
		<edge from-layer="5059" from-port="0" to-layer="5062" to-port="2" />
		<edge from-layer="5060" from-port="0" to-layer="5062" to-port="3" />
		<edge from-layer="5061" from-port="0" to-layer="5062" to-port="4" />
		<edge from-layer="5062" from-port="5" to-layer="5063" to-port="1" />
		<edge from-layer="5063" from-port="2" to-layer="5064" to-port="0" />
		<edge from-layer="5064" from-port="2" to-layer="5065" to-port="1" />
		<edge from-layer="5065" from-port="2" to-layer="5074" to-port="0" />
		<edge from-layer="5066" from-port="2" to-layer="5067" to-port="0" />
		<edge from-layer="5067" from-port="2" to-layer="5069" to-port="0" />
		<edge from-layer="5068" from-port="0" to-layer="5069" to-port="1" />
		<edge from-layer="5069" from-port="2" to-layer="5074" to-port="1" />
		<edge from-layer="5070" from-port="2" to-layer="5071" to-port="0" />
		<edge from-layer="5071" from-port="2" to-layer="5073" to-port="0" />
		<edge from-layer="5072" from-port="0" to-layer="5073" to-port="1" />
		<edge from-layer="5073" from-port="2" to-layer="5074" to-port="2" />
		<edge from-layer="5074" from-port="5" to-layer="5076" to-port="0" />
		<edge from-layer="5075" from-port="0" to-layer="5076" to-port="1" />
		<edge from-layer="5076" from-port="2" to-layer="5078" to-port="0" />
		<edge from-layer="5077" from-port="0" to-layer="5078" to-port="1" />
		<edge from-layer="5078" from-port="2" to-layer="5087" to-port="0" />
		<edge from-layer="5079" from-port="0" to-layer="5080" to-port="0" />
		<edge from-layer="5080" from-port="1" to-layer="5083" to-port="0" />
		<edge from-layer="5081" from-port="0" to-layer="5082" to-port="0" />
		<edge from-layer="5082" from-port="1" to-layer="5083" to-port="1" />
		<edge from-layer="5083" from-port="2" to-layer="5085" to-port="0" />
		<edge from-layer="5084" from-port="0" to-layer="5085" to-port="1" />
		<edge from-layer="5085" from-port="2" to-layer="5086" to-port="0" />
		<edge from-layer="5086" from-port="1" to-layer="5087" to-port="1" />
		<edge from-layer="5087" from-port="2" to-layer="5088" to-port="1" />
		<edge from-layer="5088" from-port="2" to-layer="5130" to-port="0" />
		<edge from-layer="5088" from-port="2" to-layer="5092" to-port="0" />
		<edge from-layer="5088" from-port="2" to-layer="5099" to-port="0" />
		<edge from-layer="5089" from-port="0" to-layer="5100" to-port="0" />
		<edge from-layer="5090" from-port="0" to-layer="5098" to-port="0" />
		<edge from-layer="5091" from-port="0" to-layer="5092" to-port="1" />
		<edge from-layer="5092" from-port="2" to-layer="5094" to-port="0" />
		<edge from-layer="5093" from-port="0" to-layer="5094" to-port="1" />
		<edge from-layer="5094" from-port="2" to-layer="5096" to-port="0" />
		<edge from-layer="5095" from-port="0" to-layer="5096" to-port="1" />
		<edge from-layer="5096" from-port="2" to-layer="5097" to-port="0" />
		<edge from-layer="5097" from-port="1" to-layer="5098" to-port="1" />
		<edge from-layer="5098" from-port="2" to-layer="5099" to-port="1" />
		<edge from-layer="5099" from-port="2" to-layer="5100" to-port="1" />
		<edge from-layer="5100" from-port="2" to-layer="5109" to-port="0" />
		<edge from-layer="5100" from-port="2" to-layer="5119" to-port="0" />
		<edge from-layer="5101" from-port="0" to-layer="5102" to-port="0" />
		<edge from-layer="5102" from-port="1" to-layer="5105" to-port="0" />
		<edge from-layer="5103" from-port="0" to-layer="5104" to-port="0" />
		<edge from-layer="5104" from-port="1" to-layer="5105" to-port="1" />
		<edge from-layer="5105" from-port="2" to-layer="5107" to-port="0" />
		<edge from-layer="5106" from-port="0" to-layer="5107" to-port="1" />
		<edge from-layer="5107" from-port="2" to-layer="5108" to-port="0" />
		<edge from-layer="5108" from-port="1" to-layer="5109" to-port="1" />
		<edge from-layer="5109" from-port="2" to-layer="5110" to-port="0" />
		<edge from-layer="5110" from-port="1" to-layer="5120" to-port="0" />
		<edge from-layer="5111" from-port="0" to-layer="5112" to-port="0" />
		<edge from-layer="5112" from-port="1" to-layer="5115" to-port="0" />
		<edge from-layer="5113" from-port="0" to-layer="5114" to-port="0" />
		<edge from-layer="5114" from-port="1" to-layer="5115" to-port="1" />
		<edge from-layer="5115" from-port="2" to-layer="5117" to-port="0" />
		<edge from-layer="5116" from-port="0" to-layer="5117" to-port="1" />
		<edge from-layer="5117" from-port="2" to-layer="5118" to-port="0" />
		<edge from-layer="5118" from-port="1" to-layer="5119" to-port="1" />
		<edge from-layer="5119" from-port="2" to-layer="5120" to-port="1" />
		<edge from-layer="5120" from-port="2" to-layer="5129" to-port="0" />
		<edge from-layer="5121" from-port="0" to-layer="5122" to-port="0" />
		<edge from-layer="5122" from-port="1" to-layer="5125" to-port="0" />
		<edge from-layer="5123" from-port="0" to-layer="5124" to-port="0" />
		<edge from-layer="5124" from-port="1" to-layer="5125" to-port="1" />
		<edge from-layer="5125" from-port="2" to-layer="5127" to-port="0" />
		<edge from-layer="5126" from-port="0" to-layer="5127" to-port="1" />
		<edge from-layer="5127" from-port="2" to-layer="5128" to-port="0" />
		<edge from-layer="5128" from-port="1" to-layer="5129" to-port="1" />
		<edge from-layer="5129" from-port="2" to-layer="5130" to-port="1" />
		<edge from-layer="5130" from-port="2" to-layer="5140" to-port="0" />
		<edge from-layer="5130" from-port="2" to-layer="5133" to-port="0" />
		<edge from-layer="5131" from-port="0" to-layer="5139" to-port="0" />
		<edge from-layer="5132" from-port="0" to-layer="5133" to-port="1" />
		<edge from-layer="5133" from-port="2" to-layer="5135" to-port="0" />
		<edge from-layer="5134" from-port="0" to-layer="5135" to-port="1" />
		<edge from-layer="5135" from-port="2" to-layer="5137" to-port="0" />
		<edge from-layer="5136" from-port="0" to-layer="5137" to-port="1" />
		<edge from-layer="5137" from-port="2" to-layer="5138" to-port="0" />
		<edge from-layer="5138" from-port="1" to-layer="5139" to-port="1" />
		<edge from-layer="5139" from-port="2" to-layer="5140" to-port="1" />
		<edge from-layer="5140" from-port="2" to-layer="5141" to-port="1" />
		<edge from-layer="5141" from-port="2" to-layer="5150" to-port="0" />
		<edge from-layer="5142" from-port="0" to-layer="5143" to-port="0" />
		<edge from-layer="5143" from-port="1" to-layer="5146" to-port="0" />
		<edge from-layer="5144" from-port="0" to-layer="5145" to-port="0" />
		<edge from-layer="5145" from-port="1" to-layer="5146" to-port="1" />
		<edge from-layer="5146" from-port="2" to-layer="5148" to-port="0" />
		<edge from-layer="5147" from-port="0" to-layer="5148" to-port="1" />
		<edge from-layer="5148" from-port="2" to-layer="5149" to-port="0" />
		<edge from-layer="5149" from-port="1" to-layer="5150" to-port="1" />
		<edge from-layer="5150" from-port="2" to-layer="5207" to-port="0" />
	</edges>
	<rt_info>
		<Runtime_version value="2026.1.0-21367-63e31528c62-releases/2026/1" />
		<conversion_parameters>
			<framework value="pytorch" />
			<is_python_object value="True" />
		</conversion_parameters>
		<nncf>
			<friendly_names_were_updated value="True" />
			<version value="3.1.0" />
			<weight_compression>
				<advanced_parameters value="{'statistics_path': None, 'lora_adapter_rank': 256, 'group_size_fallback_mode': 'error', 'min_adjusted_group_size': 32, 'awq_params': {'subset_size': 32, 'percent_to_apply': 0.002, 'alpha_min': 0.0, 'alpha_max': 1.0, 'steps': 100, 'prefer_data_aware_scaling': True}, 'scale_estimation_params': {'subset_size': 64, 'initial_steps': 5, 'scale_steps': 5, 'weight_penalty': -1.0}, 'gptq_params': {'damp_percent': 0.1, 'block_size': 128, 'subset_size': 128}, 'lora_correction_params': {'adapter_rank': 8, 'num_iterations': 3, 'apply_regularization': True, 'subset_size': 128, 'use_int8_adapters': True}, 'backend_params': {}, 'codebook': None, 'adaptive_codebook_params': {'value_type': 'f8e4m3', 'across_blocks': False, 'num_elements': 16}}" />
				<all_layers value="False" />
				<awq value="False" />
				<backup_mode value="int8_asym" />
				<compression_format value="dequantize" />
				<gptq value="False" />
				<group_size value="-1" />
				<ignored_scope value="[]" />
				<lora_correction value="False" />
				<mode value="int8_asym" />
				<ratio value="1.0" />
				<scale_estimation value="False" />
				<sensitivity_metric value="weight_quantization_error" />
			</weight_compression>
		</nncf>
		<optimum>
			<nncf_version value="3.1.0" />
			<optimum_intel_version value="1.27.0" />
			<optimum_version value="2.1.0" />
			<pytorch_version value="2.11.0" />
			<transformers_version value="4.57.6" />
		</optimum>
		<runtime_options>
			<ACTIVATIONS_SCALE_FACTOR value="8.0" />
		</runtime_options>
	</rt_info>
</net>
